RUL/best_mamba2_model.pth (torch, 9039 bytes, 15 tensors)

embedding.weight f4 [4, 32]
00000000: 9df9 833c dc85 2fbc 8bcb 383d 8b5d f33c
00000010: a76d 2dbc 2c73 873c fbcc 70bd 7d5c 88bc
00000020: 6d35 bc3c 75d1 3abd fc8b b73c 767b ccba
00000030: 4750 573c 5bd9 69bc 61d8 433c 9fc4 cbbb
00000040: 1608 963c 74ac bc3a 3792 f73b 54a5 9ebc
00000050: 9d0e be3b 2f1a 62bd 2c5b 503c c1c4 0fbb
00000060: 841d 1ebc 4f09 123c 7c8d 123c 0c91 9fbc
00000070: ec6a cfbb 5444 b63b 0576 dcbc c457 c73b
00000080: 76af 423d cb63 8cbb 498d bbbc 1588 043b
00000090: 64ff cebc 185c b93c 6bc2 643c be65 acbc
000000a0: a85b 173c 8aac 5cbc 38ea 843c fcc2 f63c
000000b0: 623d 9f3c b72a dfbc a648 013d 335b cf3b
000000c0: b894 9c3c a4c0 27bd 77ad d73b d30d ac3b
000000d0: 4f56 423c b9a5 c43c 650a 8dbb ae0f b7ba
000000e0: 828a 103c bf04 02bc e808 143d f8af 17bd
000000f0: fadb e33b c85c 5139 c136 453c 5073 a9bb
00000100: 5a45 f53b e016 0c3c aaa7 5ebd 9cae eb3b
00000110: cbc8 a7bc d731 27bd 91f5 753d 0b9a 1d3d
00000120: d155 773d f497 e5bc 1f2d f0bc 1eee d9bc
00000130: c597 4ebc 49e7 163d a539 933c 8767 eb3c
00000140: c826 22bc c35e 11bd e249 59bc 90f3 283c
00000150: c1d6 863b d915 5e3d ed72 a93b b735 d539
00000160: 6f89 d7ba c956 083c c424 693c 116e eb3b
00000170: db69 f63c 3990 0f3c 8561 c33c 9f9c 7a3c
00000180: edac 863c 2c28 84bb a393 69bb ac85 3abb
00000190: 2789 8a3c dc3b bf3c 0417 7abc 9697 58bc
000001a0: 0c02 5c3c 6b35 c6bc b9d9 d9bc 6e94 a8b9
000001b0: 2504 72bc b4a3 8bbb 8420 433d 8260 e1bb
000001c0: 07f1 e73b 7787 983b 3503 96bb 5e2a 91bc
000001d0: d4d3 fd3a 8245 cebc 1ea6 8539 47e8 71ba
000001e0: 0150 cebb 88da 103c 048e a43c f82f 10bc
000001f0: bbca c0bb 8f1a dd3b 7048 b2bb 5dce 8bb9
0.016110236 -0.010713067 0.04511599 0.02970769 -0.010585225 0.01653441 -0.058789235 -0.016645664
0.022974694 -0.04560991 0.022405617 -0.0015600759 0.013141698 -0.014273013 0.011953444 -0.0062185074
0.018314403 0.0014394657 0.007555272 -0.019365944 0.005800082 -0.055200752 0.01271705 -0.0021937343
-0.009650592 0.008913352 0.008944865 -0.019478343 -0.0063298848 0.0055623446 -0.026911745 0.0060834605
0.047530614 -0.004284357 -0.022894518 0.0020222713 -0.025268264 0.022626922 0.0139623685 -0.021044608
0.009238161 -0.013468871 0.016224965 0.030122273 0.01943845 -0.027242048 0.031563424 0.0063280105
0.019113883 -0.0409552 0.006581958 0.0052506714 0.011861398 0.024004804 -0.0043042176 -0.0013966465
0.008822085 -0.007935702 0.036141306 -0.03703305 0.0069537135 0.00019966357 0.01203698 -0.005171217
0.007485074 0.008550376 -0.054359116 0.007192446 -0.020481488 -0.040819015 0.060048643 0.038476985
0.060384575 -0.028026558 -0.02931839 -0.026602801 -0.012609427 0.036841664 0.017971823 0.02873589
-0.0098969415 -0.035490762 -0.013262244 0.010311976 0.004114956 0.054220054 0.005171171 0.00040666547
-0.0016444157 0.008321472 0.014229957 0.007184752 0.030079773 0.008762413 0.023850212 0.01529613
0.01643988 -0.004033109 -0.0035640977 -0.0028461022 0.016911102 0.023343973 -0.015264276 -0.013219735
0.013428222 -0.024195394 -0.026593076 -0.00032154046 -0.014771496 -0.0042614583 0.04763843 -0.0068779597
0.0070782932 0.0046548205 -0.004578019 -0.017720398 0.0019365498 -0.025179628 0.00025491504 -0.00092280324
-0.0062961583 0.008841164 0.02008725 -0.008800499 -0.0058835424 0.006747551 -0.005440764 -0.000266659

embedding.bias f4 [4]
00000000: bc53 8cbd 3dee aebd 3654 003e baa3 0f3d
-0.068519086 -0.08541534 0.12532124 0.03506825

layers.0.norm.weight f4 [4]
00000000: d167 1d3f 356c 8e3f e5fd 683f 33cf 223f
0.61486536 1.1126772 0.9101241 0.6359741

layers.0.norm.bias f4 [4]
00000000: 56fc 00be 137f 64bf 7c99 c83e 1423 0f3d
-0.12596259 -0.892564 0.391796 0.034945562

layers.0.mamba.dt_bias f4 [4]
00000000: 0dcd a5bf fab6 eabf 49da 8bbf 0381 91bf
-1.2953202 -1.833709 -1.092599 -1.1367496

layers.0.mamba.A_log f4 [4]
00000000: cdc8 8a3f 953a d0be ae49 563f 717f 3d3f
1.084253 -0.40669695 0.83706176 0.74022585

layers.0.mamba.D f4 [4]
00000000: b125 a73e c92a 363e 03f9 a23e 9a48 b43e
0.32645944 0.17789759 0.31830606 0.3521164

layers.0.mamba.in_proj.weight f4 [60, 4]
00000000: 2342 f1bd 34be 083e 8759 d2bc a84b 11be
00000010: 664f 1bbe 851d eabd bce9 babd 7d5f 3e3e
00000020: e389 b8bd 4690 57be 5a4a 3c3e 19e7 fc3c
00000030: e1f6 1fbe 9267 a23d aac3 c93d 1c23 0d3e
00000040: 9a69 ff3d aa0d d4bd 026e 923d c962 d8bd
00000050: 2837 d4bd a796 36bc 3062 053e d8d2 6abe
00000060: 1eb4 a73d f133 2d3e 2dd4 b2bb 2c95 36be
00000070: 4651 e03d 88f1 d2bc 48dc 9d3d 1b0b f9bd
00000080: 4871 193e c04f e5bd 63e8 2bbe 7c40 743e
00000090: e2d1 903d 1915 8dbd 4d1a 0ebe bfe6 803c
000000a0: 3dba 75bd fd62 8fbd 0871 db3d 4f1a e5bc
000000b0: 8edf 01be 0853 553d 538a f63d b489 04be
000000c0: 02e0 9a3d 164f f83c 9937 cd3d 4edd efbd
000000d0: 02fd fcbd 2407 353e 0aba 533e 9150 74bd
000000e0: 32c5 c9bd 063e 973c cd42 833d bf8e b8bd
000000f0: 5687 ca3d bda9 7a3e 54ce 723c f7a7 48be
00000100: f3ab b6bd d5f0 0d3d 7624 9d3d d629 5ebd
00000110: 2bd5 f83c d874 e1be 7809 e53d 27c3 dc3e
00000120: abbb 0c3e 4707 f3bd f8ac 37be 727e 6fbd
00000130: a569 fabe 7456 2c3c f50b 0c3f ac43 683d
00000140: ce28 1abc 7c7b 9cbe efd6 77bd 235e ab3e
00000150: 2db2 1ebc e11a 81bd 5d28 ae3d 9465 7e3b
00000160: 8856 fcbd 6a15 123e 87f2 1dbd 61d4 bdbd
00000170: 356a 8abe a851 9a3d b6d6 6a3e f09b d83c
00000180: 23ec 59bd bb8f bbbd df91 bfbd a9d5 043d
00000190: 7ec1 c2bc d875 cf3e 0882 413d 73d3 87be
000001a0: 5635 513e 044c 10be 6115 75be ca5c 8fbd
000001b0: 867d 6abc 3411 cf3b 6114 9bbb 7711 05be
000001c0: a801 233e 47dc 02be ee69 2cbe 842c c53d
000001d0: 1bb9 26bc b179 62bd 5814 3d3d 709d 023e
000001e0: f8fe 9a3e 97b3 38be eb5e e5bd de54 0b3d
000001f0: 0e50 7c3d 6e99 03be 4e44 213e 2b18 c33d
00000200: a50d b2bc 6a02 c7bd 4afc 3a3e 977c b7bd
00000210: 2065 dbbb 6eb0 343e 564e aebc 2398 e8bd
00000220: ba8f 3fbd 7bad 57be d7bf 213e 0f93 5e3c
00000230: 6fcb 283e 02aa f73d 9497 a53d 4351 a2bd
00000240: aab6 3abe 8c7a c13d 82f3 9d3d b606 69be
00000250: 69dc 17be 3155 71bd 7d8f c03d bf03 1ebe
00000260: 0428 de3b 3c3a 603d b745 8ebe 45eb 393d
00000270: 45f8 5d3e 7b99 d9be 9fad ac3e fb24 bebd
00000280: 38cc 51be 8ee2 86be eade 633e d01a f8bc
00000290: 7e2b 1ebe e766 143d 23d2 0b3d 840f edbd
000002a0: e50c 843d e24e a4bb 6db5 ddbd c23a a6bd
000002b0: a667 f5bd 3489 813e de71 6ebd 7b4e 87be
000002c0: c986 37bd 7fc9 a43d 4460 063e 8dc7 87bc
000002d0: 863b 59be 2169 d93c 59f6 643e 68e2 a63c
000002e0: 4cbb b13d 7145 bb3e f795 e7bc 57ba 92be
000002f0: ceb4 33be dd82 833c 6771 0e3e b471 463d
00000300: c649 ecbd 1333 0dbe 219b 40be 8069 f53c
00000310: b81a b1bc 1d2f d2bd 3db6 2c3c 0acb af3d
00000320: d8fb 00be c3f8 213e bba0 493e 5879 10bf
00000330: 4c14 3cbe 15ba 803d c0bd 823d 5537 8fbd
00000340: c390 fe3d d1da 60be 19bb edbd 027b e83c
00000350: 01fa 5ebe 5174 58bd c3da 523e d942 99bd
00000360: 9e66 55be 7c5c f03d f297 1d3d a4f2 be3d
00000370: 9ab0 843b 68f7 153e 2b4f a0bd 73c2 91bd
00000380: f013 0f3e dc22 84be b638 aabe 9799 033f
00000390: bfd8 ae3e 9168 8a3f d7e2 70bf b19b 5cbf
000003a0: dda1 9e3d 7761 ebbd c7d9 18be 94a4 d53e
000003b0: a9a8 6ebe 1a46 a03d fc5b 4f3e 1a8d 4a3d
-0.11780193 0.13353807 -0.025677456 -0.14189017 -0.15167007 -0.11431412 -0.091266125 0.18591113
-0.09010675 -0.2105113 0.18387738 0.030871915 -0.1562152 0.07929911 0.09851773 0.13782924
0.12471314 -0.10354169 0.071498886 -0.10565717 -0.10362083 -0.011144317 0.13025737 -0.22931993
0.081886515 0.16914345 -0.005457422 -0.17830342 0.10953002 -0.025749937 0.07708031 -0.12160321
0.1498462 -0.11196852 -0.16787867 0.23852724 0.07071282 -0.0688879 -0.1387722 0.015735028
-0.059992064 -0.070013024 0.107149184 -0.027966646 -0.12682936 0.052081138 0.12038102 -0.12943155
0.07562257 0.030311149 0.1002037 -0.117121324 -0.12352945 0.17678505 0.20676437 -0.059647147
-0.09852065 0.018462192 0.064092256 -0.09011602 0.098890945 0.24478813 0.0148197 -0.19595324
-0.089195155 0.034653503 0.0767297 -0.054239117 0.030375084 -0.44034457 0.11183447 0.4311764
0.13743465 -0.118666224 -0.17937076 -0.058470197 -0.48908725 0.010518659 0.54705745 0.056705162
-0.009409143 -0.3056296 -0.06050771 0.33470258 -0.009686035 -0.06303955 0.085037924 0.003881787
-0.12321192 0.14265981 -0.03856137 -0.09269024 -0.27034155 0.07535106 0.22933468 0.026441544
-0.053203713 -0.09158274 -0.093539946 0.032430325 -0.023773905 0.40519595 0.047243148 -0.2652851
0.20430502 -0.14091498 -0.23933937 -0.0700012 -0.014312154 0.0063191894 -0.004732654 -0.12994944
0.159186 -0.12779342 -0.16837284 0.09627631 -0.0101759685 -0.055291835 0.04616198 0.1275537
0.3027265 -0.18037258 -0.11199745 0.034016483 0.061599784 -0.12851498 0.15748712 0.09526094
-0.021735022 -0.09717257 0.18260303 -0.089593105 -0.0066954046 0.17645428 -0.021277588 -0.11357143
-0.046767928 -0.21062271 0.15795837 0.013584866 0.16483854 0.12092973 0.08085552 -0.07925656
-0.18233743 0.09447202 0.07712461 -0.22756466 -0.14830174 -0.058919135 0.09402368 -0.15431117
0.0067796726 0.054743037 -0.27787563 0.045390386 0.21676739 -0.4249991 0.33726212 -0.09284397
-0.2048806 -0.26344723 0.22253004 -0.030286223 -0.15446278 0.036230948 0.03413595 -0.11575225
0.06447772 -0.0050142864 -0.1082562 -0.08116676 -0.1198266 0.2529999 -0.05821406 -0.26427063
-0.044806276 0.08046245 0.1312266 -0.016574645 -0.21214113 0.026539387 0.22359599 0.02037163
0.08678302 0.36576417 -0.028269751 -0.2865779 -0.1754944 0.016053611 0.13910447 0.04844828
-0.11537509 -0.13789015 -0.18809177 0.029957533 -0.021619186 -0.102628924 0.010541496 0.085836485
-0.12596071 0.15817551 0.1969022 -0.56435156 -0.18367118 0.06285492 0.06383848 -0.069929756
0.12429955 -0.21958472 -0.11607952 0.028378967 -0.21775056 -0.052845303 0.20591263 -0.07483453
-0.20839927 0.1173639 0.038474984 0.09323624 0.004049373 0.14645159 -0.078276 -0.07117166
0.1397245 -0.25807846 -0.33246392 0.51406235 0.3414974 1.0813161 -0.9409613 -0.86175066
0.07745717 -0.11493199 -0.14926825 0.41727126 -0.23306526 0.07825871 0.20249933 0.04945097

layers.0.mamba.conv1d.weight f4 [48, 1, 4]
00000000: c14b 25bd a729 3bbd efe4 31bd edc2 583e
00000010: db15 fe3d 35c2 e93d c7f4 1c3e 2bb4 c7bc
00000020: 5536 39bc 627c b6bd b41f 58bd b03a f23d
00000030: 239c f6bd 68fb d0bd 0b0c 19be 610f 323c
00000040: f360 133d 0a3c c7bc 1cb8 6b3b a2f7 1dbe
00000050: 4bc5 613d b552 403d c33b 453d c2bb 8ebe
00000060: 7609 8bbd 71f6 63bd 28a7 acbd 50a8 5dbe
00000070: 6aae a7bd 260a bf3b 929d c1bc 9a9b 263e
00000080: df0b f3bd b5af 44be 3ffd 53be e430 40be
00000090: a64d 95be 6d80 39be 62a9 79be af80 fbbe
000000a0: 7df7 8e3e b6f7 433e 22ed 513e fe13 873d
000000b0: 2685 eabe 7a22 b2be 8493 e3be 41d4 61bf
000000c0: 0902 4fbe ef87 5dbe 624e 85be ce56 6abe
000000d0: fd14 b63d dc8d d33c d2e3 4bbc f5b3 ebbd
000000e0: 9b1e 893c 545a c83d fd5d e53d 253b af3c
000000f0: 6dae f73d 249e 643e ea81 403d c4bc 5c3e
00000100: 1985 b8bc de22 b83c 843f 9a3b 7452 e1bb
00000110: 1fd3 5d3e bb7f a63e b1c2 5f3e 8db6 113f
00000120: 575a a63e 786f da3d 25b8 1f3d 43d0 ac3e
00000130: 6498 b63c 1afe 1ebe d5b3 99bd 1199 f2bd
00000140: cdd0 513d c741 2f3e 5502 2a3e a878 4c3e
00000150: 9006 25bd a068 e83d 3146 2a3c 30fe 94bd
00000160: 7981 f13d 0210 1f3e 36e3 273e 4ce8 d13c
00000170: 2734 c53d e968 9ebc c14d 6dbd 1fb7 14be
00000180: 2d08 353e 62cf 173e a943 1f3e feac 013e
00000190: 7920 9f3c d89c b6bd 70c1 0fbe 3473 07bd
000001a0: 9595 39be d850 45be 29f2 18be d87d eebd
000001b0: e845 0f3d e7a8 8ebd 8114 b4bd e5e4 463d
000001c0: 21aa 1ebe 7267 2ebe 7b84 6c3c 701f b23d
000001d0: 2a92 5a3e 4900 713e dda6 273e f3e3 053e
000001e0: fb18 083d 7f99 983d 1913 b03c a701 f63d
000001f0: bbdc d1bc 14ec 6a3c 8a72 69bc a97f 0fbf
00000200: 9110 5bbd a24f 11bd 02b0 f3bb ea5c 733e
00000210: a08c fb3d da00 153e 45e6 dfbd ec1f f6bd
00000220: 86f3 0ebd 8a5c 53bd f767 23bd c384 3abe
00000230: 2dd1 4e3d 17e3 bbbd 0cee 34bc 5b18 a6be
00000240: 276e 263e fa87 2fbd 3cfb dd3d 0f7f 74bd
00000250: d9cc 083c 87e3 dd3d e570 823d ddd9 5f3e
00000260: a6d5 403d a655 f3bd 2ed8 bbbc e3d4 963e
00000270: e46e 183d 6531 a83c a110 873c eb4d 02be
00000280: ed1f e3bb d1ea c93d ff69 0f3e 26d7 0fbe
00000290: 57c5 f0bd 54d3 bd3b d3ad cebd 6681 043e
000002a0: c9a1 c8bd 7c27 e4bb 52fa 4ebd eac2 af3e
000002b0: d077 453e 5e6a 5b3d fcbb 263e ce2e 373e
000002c0: 6e57 0f3d 1faf 08be 8f59 82bd 552a 423e
000002d0: c0bf b7bd e977 00bd 1044 febd 1390 4fbe
000002e0: 00b1 1d3d 47ee 4e3b 58c0 863b ba85 983e
000002f0: 6dc4 b63d 49ed 133e cd7f dc3c be41 86bd
-0.040355448 -0.04569402 -0.04343122 0.21168108 0.12406512 0.11413995 0.1532775 -0.024377903
-0.011304458 -0.08910443 -0.05276461 0.118276 -0.120414995 -0.10204202 -0.14946 0.010867924
0.03598113 -0.024320621 0.0035967892 -0.15426496 0.055119794 0.046953876 0.048152696 -0.27877623
-0.06788914 -0.055654947 -0.0843032 -0.21646237 -0.08187564 0.005830067 -0.023634706 0.16270295
-0.118674986 -0.19207652 -0.20702074 -0.1876865 -0.29160804 -0.18115397 -0.2438102 -0.49121615
0.27923194 0.19137463 0.20500615 0.0659561 -0.4580471 -0.3479193 -0.44448483 -0.882145
-0.2021562 -0.21633886 -0.26036364 -0.22884676 0.08890722 0.02582448 -0.012444453 -0.115089335
0.016738227 0.09782854 0.111995675 0.021390507 0.12093816 0.22325951 0.046998896 0.21556383
-0.022524403 0.022477563 0.0047072787 -0.0068762843 0.21662568 0.32519326 0.21851613 0.56919175
0.324908 0.10665792 0.038993973 0.3375264 0.022289462 -0.1552662 -0.07505003 -0.11845601
0.05122452 0.17114936 0.16602452 0.19967902 -0.04028946 0.11348081 0.0103927115 -0.07275045
0.11792273 0.1553345 0.16395268 0.025623463 0.09629088 -0.019337134 -0.05793548 -0.1452298
0.176789 0.14825204 0.15553154 0.12663648 0.019424664 -0.08916634 -0.14038634 -0.03306885
-0.18123467 -0.1926912 -0.14936127 -0.116450965 0.034978777 -0.06965809 -0.08792973 0.048558135
-0.15494587 -0.17031649 0.014435883 0.086974025 0.2134482 0.23535265 0.16372247 0.13075237
0.03322695 0.07451152 0.021493481 0.12012034 -0.025617948 0.014338512 -0.0142485 -0.5605417
-0.053482596 -0.035476334 -0.0074367533 0.23765913 0.122826815 0.14551106 -0.10932592 -0.12017807
-0.03490021 -0.051601924 -0.03989407 -0.18214707 0.050492454 -0.09174173 -0.011043083 -0.32440457
0.16252957 -0.042854287 0.10838935 -0.059691485 0.008349621 0.10834413 0.06369189 0.21860452
0.04707875 -0.118815705 -0.022930231 0.29459295 0.03721513 0.020531366 0.016487421 -0.12725036
-0.006931296 0.09859241 0.14005278 -0.14046916 -0.117563896 0.0057930145 -0.10091748 0.12939987
-0.09796483 -0.0069627147 -0.050531693 0.34328395 0.19283986 0.053568237 0.16282648 0.17888948
0.03499549 -0.13348053 -0.06364738 0.18961461 -0.0897212 -0.031364355 -0.12415326 -0.20269804
0.03849888 0.003157513 0.0041122846 0.29789525 0.08924184 0.14445986 0.026916409 -0.06555508

layers.0.mamba.conv1d.bias f4 [48]
00000000: c74a 90bd cc9a e2bc 7392 58be d36b edbd
00000010: 3524 0dbe 5888 68bc 3120 ebbd 6acc 19be
00000020: f907 d9bd d6e6 223e 0fe7 1f3e a5f5 553c
00000030: 09f4 5d3d 116a 073e fde8 dabd ef63 2abd
00000040: 4495 d83d 09cb 75bd 7839 8b3d 5216 3f3e
00000050: eb2d 1e3d 7843 923d 4dd4 cdbd c4f2 3b3c
00000060: 647b 813c 2664 583d 8ce4 66ba c887 0b3e
00000070: c37e 36bd 8b2a 543d d8b8 03be 8760 0cbe
00000080: 2c95 0c3e 9fe6 1fbe 2283 0d3e de60 823d
00000090: 2e93 cabd 9c4b 163e c615 0cbe 5e13 a8bd
000000a0: 3be9 5ebd 1a50 19be f10c b6bc f78b 253c
000000b0: d53d c83d dfe7 a23d c9dd ac3d 4fd0 17be
-0.07045513 -0.027661704 -0.21149616 -0.115928315 -0.13783343 -0.014192663 -0.114807494 -0.15019384
-0.10597224 0.1590837 0.15615486 0.0130590545 0.05418781 0.13224055 -0.1068897 -0.04159921
0.10575345 -0.060008083 0.06798071 0.18660858 0.03861801 0.07141775 -0.10050259 0.011471454
0.015805908 0.052829884 -0.000880786 0.13626015 -0.044554483 0.051798385 -0.12863481 -0.13708697
0.1372878 -0.15615319 0.13819554 0.06366132 -0.098913535 0.1467728 -0.13680181 -0.08206819
-0.054421645 -0.14971963 -0.022222968 0.010104171 0.097774185 0.07954382 0.0844074 -0.14825557

layers.0.mamba.norm.weight f4 [8]
00000000: 157b ae3e ae70 983e 6903 b13e 7a13 0b3f
00000010: 2827 9c3e 201a c33e 11f4 a33e 6797 813e
0.3407828 0.29773468 0.34572914 0.54326594 0.30498624 0.3810587 0.32022145 0.25310823

layers.0.mamba.out_proj.weight f4 [4, 8]
00000000: 42ee 2e3e 370e e73d 1197 3a3e 80de 8dbe
00000010: 3d02 debd e565 9fbd 578f 113d d9cf c8bc
00000020: 06d3 7a3c 2f94 1bbd 9c58 46bd cdf3 ddbd
00000030: 6c1f 223c ba3f 573e 066f 86bd 3b6a 3abc
00000040: 9f3f 1fbe 6150 e2bc b034 18be 580f 45bd
00000050: 11ad 043d 1825 debd 4d50 8bbd 1477 0a3d
00000060: e68f 60bd 948a 4f3d a371 1f3e 7287 b53d
00000070: 172e 5fbd ef31 eebc 344e 2f3e d58d aabd
0.17083076 0.11282008 0.1822169 -0.27708817 -0.10840271 -0.07783107 0.03553709 -0.024513172
0.015309101 -0.037983116 -0.04842435 -0.10837517 0.009895187 0.21020404 -0.06564145 -0.011377866
-0.15551613 -0.027626218 -0.14863849 -0.048110336 0.03239161 -0.10846919 -0.068024255 0.033804968
-0.054824732 0.050669268 0.15570693 0.08863725 -0.054487314 -0.029076545 0.17119676 -0.083278336

norm_f.weight f4 [4]
00000000: b4e6 3e3f 4c88 203f 7013 3b3f 91b6 4e3f
0.74570775 0.6270797 0.73076534 0.80747324

norm_f.bias f4 [4]
00000000: 81f6 72bd 5e58 343d 7f15 d83c 4e89 76bd
-0.059317116 0.044029586 0.026377438 -0.060189538

head.weight f4 [1, 4]
00000000: 2a4e 183f c5d1 bdbe b0b4 f3be d8cd 2b3f
0.5949427 -0.37074104 -0.4759879 0.6711097
