RUL/mamba2_RUL.pth (torch, 10895 bytes, 15 tensors)

embedding.weight f4 [8, 37]
000000 cb bd 53 bd f9 8a 72 3d 32 89 3e bc 1e 60 ae 3b
       -0.051694673 0.059214566 -0.01162939 0.0053215167
000010 db 0a 46 3c fc da 93 3c 16 11 96 bd a3 1f 8f 3c
       0.012087549 0.018048756 -0.07327478 0.01747114
000020 0d 6a 13 3b 5e e5 71 bd cc 71 a3 3d a4 b7 a7 3c
       0.002249363 -0.059056632 0.079806894 0.020473309
000030 c8 09 82 3d 57 57 c0 3a 47 0e 02 3d 95 8c cc bc
       0.06349522 0.0014674467 0.031751897 -0.024969378
000040 97 dc 47 3d fa 23 d6 bb 23 54 92 bd 1e 8e 0c ba
       0.048794355 -0.0065350505 -0.07144954 -0.0005361753
000050 69 2e 85 3a ce aa b4 bb 3b c1 8d ba e2 da ce 3b
       0.0010160926 -0.0055135256 -0.0010815033 0.006312714
000060 ee f1 bd 3c e6 13 94 3d 9a b3 0f bc b3 18 97 bc
       0.02318665 0.07230358 -0.008770848 -0.018444395
000070 b3 00 05 bc d6 c5 24 3c b4 2f ac ba 5f 50 9c bd
       -0.0081178425 0.010056933 -0.0013136775 -0.07632517
000080 c1 a2 8e 3d 7a d9 87 ba f1 db e1 ba d8 7b c3 3d
       0.069646366 -0.0010364496 -0.0017231685 0.09545106
000090 1f 11 cd bb ae fa 15 3e 07 b5 7f 3b 6e eb e0 bc
       -0.0062581445 0.14646408 0.0039017813 -0.027456012
0000a0 56 4a 8f bc 53 3d 76 bc 5b fc 05 3c ad 5d 1c 3d
       -0.0174915 -0.015029269 0.008177842 0.038175274
0000b0 c9 c9 f3 3c 6b 30 92 bc 47 d5 87 3d 49 a4 34 3d
       0.029759305 -0.017845353 0.06632476 0.044101987
0000c0 e8 1a 77 3d 8d 33 2d bd a8 f4 b5 bd 9e 8d 15 bd
       0.060328394 -0.04228549 -0.08884555 -0.03651201
0000d0 70 04 7b bd 2b b9 18 3d f7 71 44 bc 7c 99 bb 3c
       -0.06128353 0.037285965 -0.011990062 0.022900335
0000e0 24 36 b3 bb a2 70 d3 3b eb 12 21 bb 42 16 d5 3b
       -0.0054691005 0.006452636 -0.0024577926 0.0065028975
0000f0 ce ac e7 39 6b 10 32 bd 54 a7 1d 3c ca 8c a4 3d
       0.00044188503 -0.04347269 0.009622414 0.08034666
000100 12 ab d1 3c 31 1b db 3b 08 07 4d 39 b5 66 27 bd
       0.025594268 0.006686591 0.00019552943 -0.040869433
000110 9f 91 1a bd 56 57 a7 ba b2 31 37 bc bd 11 df 3c
       -0.03773653 -0.0012767117 -0.011181282 0.027230138
000120 b9 eb a6 3d 31 ff 99 bc 5b 91 0e be 35 02 3f bd
       0.08150429 -0.018798443 -0.13922636 -0.046632964
000130 d8 10 e1 bc a2 58 7e 3d f8 d2 3b 3c 41 a4 97 3d
       -0.027473852 0.062096246 0.011463873 0.07404376
000140 a1 d0 1a bd c6 af 6d bd 96 90 80 bc ba 7d 56 bd
       -0.03779662 -0.05802896 -0.015693944 -0.052365996
000150 4a 77 c7 3c f6 74 1b bd 57 fa 17 3d f5 46 94 bd
       0.024348874 -0.03795334 0.037103977 -0.072400965
000160 51 39 48 bd f3 32 5c 3c 80 62 3b 3d 5e 58 6a bc
       -0.048882786 0.013439882 0.045748234 -0.014303295
000170 a9 ca 5b 3d a9 97 4b bb be 26 8d ba 53 80 b1 3b
       0.05366007 -0.0031065738 -0.0010768992 0.0054169088
000180 c5 e1 a5 3c b4 4f 84 bc 09 37 40 3d e0 5d af 3b
       0.020249257 -0.016151287 0.046927486 0.005351767
000190 36 04 fd bd 13 6a 17 bc 99 2b 7d 3c 28 9a 82 3c
       -0.12354319 -0.009241599 0.015452289 0.015942648
0001a0 a6 c9 74 bc fb 02 ac 3c 6a 52 e9 bc 65 e8 90 3b
       -0.014940655 0.020997515 -0.02848168 0.004422235
0001b0 28 ce 16 bc 66 7f 09 3d 93 f5 6b 3c 48 fe e9 3d
       -0.009204425 0.033568762 0.014401811 0.114254534
0001c0 51 c0 19 3d 7a 56 27 bd ca 68 40 bd c4 59 b8 bc
       0.037536923 -0.040853955 -0.046974935 -0.022503741
0001d0 fb 78 fb 3c 42 66 3c bd fc a3 0c 3c ba ff aa 3c
       0.030697336 -0.04599596 0.008584019 0.020873893
0001e0 35 c8 af 3c 98 23 3d bc 54 95 79 3c 60 43 0b bd
       0.02145777 -0.011544131 0.0152333565 -0.0339998
0001f0 9f 0c d0 bc c4 19 89 bc f9 45 de bc 53 bc 1b bd
       -0.025396643 -0.016735919 -0.027132975 -0.038021397
000200 12 96 d5 3d 66 e7 80 3c e6 86 b8 bb 01 9e fc 3a
       0.10429014 0.01573534 -0.0056313155 0.0019273163
000210 e5 db d8 bb 38 45 bb bb 87 46 77 ba 1f fb 05 bd
       -0.0066180103 -0.0057150386 -0.00094328116 -0.03271019
000220 51 af a8 bd 6f a6 b8 3c 0e 8c a0 3c 7e 83 7b 3b
       -0.08236564 0.0225403 0.019598033 0.0038377936
000230 44 ab f5 bc 3f ac 50 3c 89 96 27 3d 10 24 35 bd
       -0.029988892 0.012736379 0.040915046 -0.044223845
000240 18 ae b2 3b 0a de d6 3b 5f 2f f3 3c c9 96 95 3c
       0.0054528825 0.006557231 0.029685674 0.018260377
000250 6e 0c 26 3d bc 56 a2 bd 13 34 60 bc ad 85 ed b8
       0.040539198 -0.079266995 -0.01368429 -0.0001132594
000260 4c 5c 8a bc 20 09 70 bd 4a 1e b4 3d c1 9d 95 bd
       -0.016889714 -0.058602452 0.0879484 -0.0730548
000270 b3 d1 1a 3d 9c 1d 74 3c 37 45 00 3c 4b 93 7e bd
       0.03779764 0.014899638 0.007829002 -0.06215219
000280 c0 e7 85 3d d9 61 13 3c 74 66 8c 3a 15 4b 8b bd
       0.065383434 0.008995497 0.0010711686 -0.0680143
000290 b3 16 df 3c 03 31 46 bc c9 74 0c bd 64 29 a2 3b
       0.027232504 -0.012096646 -0.034291063 0.004948782
0002a0 e3 eb 9b bb 74 58 0b 3d 06 65 96 3c 00 a7 69 3a
       -0.0047583445 0.034019902 0.018358719 0.00089131296
0002b0 ff c2 cf bc 81 e9 41 bd 05 f5 bd bd af d0 b4 bc
       -0.025361536 -0.047341827 -0.092752494 -0.022072164
0002c0 f5 4c 8d 3b cb d6 5e 3c 67 45 32 3d f6 1e 89 bd
       0.0043121525 0.013601015 0.04352322 -0.066953585
0002d0 d5 82 fc bb a8 52 97 3c 9f 46 8c 3c a9 28 9e bd
       -0.007706026 0.01847203 0.017123519 -0.07722599
0002e0 ee 08 c7 3c ed 82 83 bd fa d3 33 3d 3c 3b 01 bc
       0.02429625 -0.064214565 0.04390333 -0.007887658
0002f0 8c 4e 85 bd 51 bf 43 3b f2 3c 56 bd c8 9e 6d bd
       -0.06509122 0.0029868672 -0.052304216 -0.058012754
000300 dc ba 3b 3d 22 6f c4 3d a3 6e 6f 3b 9d e2 a8 3b
       0.0458325 0.095915094 0.003653445 0.0051539675
000310 48 98 5c 3c 8a 1c 0d bb 54 52 44 3c ca 1c 80 3c
       0.013464041 -0.0021531903 0.011982519 0.015638728
000320 d5 e5 9b bd db 6b 43 bd a7 9c 43 3d 61 91 d5 3b
       -0.07612196 -0.04771028 0.047756817 0.0065175747
000330 71 c8 7e bb a7 97 af bb e8 f3 50 3c 5d 5c ef 3b
       -0.0038876797 -0.0053586545 0.012753464 0.0073047117
000340 7b 3e 49 bb 9c 25 49 3d 68 c9 57 3d 3c d0 3c 3e
       -0.0030707407 0.049108133 0.05268231 0.1843881
000350 ba ee d1 bc 4f 28 0f bc a3 fd 71 3b dc e1 c8 3c
       -0.025626529 -0.008737638 0.003692486 0.02452176
000360 bf bc 53 bc 14 0a 79 3b 39 2e 81 3b f6 04 83 bc
       -0.012923419 0.0038000392 0.0039422777 -0.015993576
000370 56 af 21 bd ec a6 04 3c 31 25 5f bc de d6 68 3c
       -0.039473854 0.008096438 -0.013619707 0.014211385
000380 5d 1e 2d bd 08 e8 02 3e fe 44 22 3d 8b c3 36 3d
       -0.042265285 0.12783825 0.039616577 0.044620078
000390 81 3d a4 bc bc 77 59 bd ab 7e 6e bd bc 93 03 3d
       -0.020048859 -0.053092703 -0.05822627 0.032123312
0003a0 e0 c1 e9 3a 2d 77 25 3d 9a c1 97 3c d8 c6 19 3c
       0.0017834269 0.040396858 0.018524934 0.009385787
0003b0 c0 c1 5e bc 09 ab b4 bd 7d d2 c9 bc 9a 46 33 bd
       -0.013595998 -0.08821685 -0.024636501 -0.043768503
0003c0 ea ce 0e 3d 03 38 3a bc 67 5a 34 3c dd 40 aa 3c
       0.034865297 -0.011365893 0.011007882 0.020782882
0003d0 20 af 87 3b 40 62 02 3b e6 88 4d bd 23 9d 12 3b
       0.0041407496 0.0019894987 -0.050179385 0.0022371493
0003e0 a9 1f d2 bc 41 25 75 3d 60 b1 4f bc 74 c8 4f bd
       -0.025649862 0.05984998 -0.012676567 -0.050728276
0003f0 17 5a 69 bc 3d 43 80 bc 5c 5e f8 bc 2b 69 b6 bb
       -0.0142426705 -0.015657062 -0.030318432 -0.005566736

embedding.bias f4 [8]
000000 71 81 d2 bd 70 89 3f 3e bc 70 64 be 88 ef 3e 3e
       -0.10278595 0.18704772 -0.2230863 0.18646061
000010 66 d0 0e bd e3 c0 b1 3d ba 8e d5 bc ba 3e a2 3c
       -0.034866713 0.08679368 -0.026069034 0.019805301

layers.0.norm.weight f4 [8]
000000 42 be 27 3f 88 ca 1f 3f 23 a4 2a 3f b0 8b 1d 3f
       0.65524685 0.62418413 0.666567 0.6154127
000010 88 be 16 3f 09 6a 4c 3f db 07 34 3f 5f 03 2b 3f
       0.5888448 0.79849297 0.70324486 0.6680202

layers.0.norm.bias f4 [8]
000000 54 0a ed be cb 82 d0 bc 32 ed 27 be 90 6f 72 3e
       -0.46296942 -0.025452992 -0.16399077 0.2367537
000010 81 c7 b1 3e 39 c0 2b be 48 5f 9b 3e 60 03 17 3e
       0.34722522 -0.16772546 0.3034613 0.14747381

layers.0.mamba.dt_bias f4 [4]
000000 c0 67 88 c0 a7 0d 43 c0 81 c1 80 c0 ba c7 29 c0
       -4.262665 -3.0477083 -4.023621 -2.6528153

layers.0.mamba.A_log f4 [4]
000000 ae 72 94 3f d3 6f 64 3f 37 60 53 3f cf 10 aa 3f
       1.1597497 0.8923313 0.8256869 1.328638

layers.0.mamba.D f4 [4]
000000 cb 12 1c 3e 63 1c 53 3d 46 82 e8 3e 93 64 07 3f
       0.15241544 0.051540744 0.4541189 0.5288784

layers.0.mamba.in_proj.weight f4 [60, 8]
000000 32 c1 81 be 97 8c 39 bc c6 5c b2 bd eb ac b5 3d
       -0.2534271 -0.011325023 -0.087091014 0.08870872
000010 da 36 df 3d 38 56 d9 bc ef 4a 79 3e 52 a3 16 3e
       0.10899134 -0.02653037 0.24344991 0.1471074
000020 9e a6 00 be 30 59 b6 3d 7b 23 53 3e d2 50 98 bc
       -0.1256356 0.0890373 0.20619003 -0.018593226
000030 a8 5a 05 3e cd 99 1a 3e 3e 3b 2f bd 8b 2c 8c 3d
       0.13022864 0.15097733 -0.042781107 0.068444334
000040 59 0f e8 bd 5b 54 1c be 43 d7 8c bb e5 95 5c 3e
       -0.11331052 -0.15266554 -0.004298122 0.21541555
000050 16 cc c8 bd ed e0 51 be 8a af a8 bd 5e 76 56 be
       -0.09804551 -0.20495959 -0.082366064 -0.20943591
000060 9b 5e 3c be d5 1e 15 bd b8 11 70 3d 92 6b ef 3c
       -0.18395464 -0.036406357 0.058610648 0.029226098
000070 07 0c ba 3c c3 fd 52 be 6f 74 70 3d 57 05 a0 bd
       0.022710813 -0.20604615 0.05870479 -0.078135185
000080 3e 66 f0 bd 00 cf fe 3d 94 6a c8 bd 6f c7 7f 3c
       -0.11738251 0.12441826 -0.09785953 0.0156115135
000090 f8 a7 93 bc 10 bd 1f bc 67 dc d3 bd 79 3a 00 be
       -0.01802443 -0.009749666 -0.10344773 -0.12522306
0000a0 61 ba b1 bd 8a e8 67 be 76 39 49 3e e9 ea 74 be
       -0.08678127 -0.226473 0.19650826 -0.23917736
0000b0 61 88 99 3d 80 1c 9e bd 22 48 da 3d b4 70 d8 3d
       0.07496715 -0.0772028 0.106582895 0.105683714
0000c0 53 1d c3 3d 51 4c af 3d 1e 06 d4 bd b4 eb 20 3d
       0.095270775 0.08559478 -0.10352729 0.039287284
0000d0 a1 75 68 3e e8 49 a1 bc a6 40 04 be 8a f5 e0 3d
       0.22701122 -0.019688562 -0.12915286 0.10984333
0000e0 11 9b 5e bd 8e 20 23 3d 39 7c e0 bd 47 77 c0 3b
       -0.0543471 0.03982597 -0.109611936 0.005873594
0000f0 a1 36 44 bd 0a 03 0e 3e da b5 b7 3a ee 5d 66 be
       -0.04790366 0.13868347 0.0014015988 -0.22496769
000100 11 61 10 be 71 cd 27 3d da 77 d7 3d d0 37 64 3d
       -0.14099528 0.04096741 0.10520907 0.05571729
000110 47 cd bc bd e7 00 53 bc 9a ea 0b be 1d c9 9f bd
       -0.09218841 -0.012878633 -0.13663712 -0.07802031
000120 48 a4 f5 bc 82 9d 11 be ed f0 a3 3e 9d 03 fe bd
       -0.029985562 -0.1422024 0.3201975 -0.12403033
000130 04 e0 c2 3d b7 91 d0 bd 63 4e 44 3e 96 cb 16 3e
       0.09515384 -0.10184043 0.19170527 0.147261
000140 2a 6c 43 3d 62 b3 75 3e df d4 3f be 28 c5 9f 3c
       0.047710575 0.2399421 -0.18733548 0.019503191
000150 11 d6 bc bd 78 3c c0 3d ab 75 36 be 8b 61 be bd
       -0.092205174 0.093865335 -0.17818324 -0.092959486
000160 c5 af ad 3e 62 1e 33 3e c8 98 65 3d 9e d1 f0 bd
       0.33923164 0.17492059 0.056053907 -0.11758731
000170 b0 ee 30 be 0f b9 c5 3d 70 41 12 be cb 09 e2 bd
       -0.17278552 0.09654438 -0.14282775 -0.11037024
000180 57 fe c6 bd df c2 c1 ba bd fd 63 3c af d9 20 3d
       -0.0971648 -0.0014782808 0.013915476 0.0392701
000190 3f c6 f6 3c c9 cc 13 bd e9 8c 61 be 10 f3 8d bd
       0.030123828 -0.03608397 -0.22026409 -0.06931126
0001a0 05 ed de bd 54 b4 20 3d 94 47 93 bd 0c 29 18 3c
       -0.10885052 0.039234474 -0.07191387 0.00928713
0001b0 35 36 15 3e b9 03 0a 3d 33 38 0b 3e 3a a5 85 bd
       0.1457146 0.033694956 0.13595657 -0.06525655
0001c0 00 be 9c bd 0d 16 f6 3c e5 11 2e be e0 9c 38 bd
       -0.07653427 0.030039812 -0.16999014 -0.045071483
0001d0 bd 3f 04 bd 67 ea b8 bd 46 3d 4c bd c8 b4 27 3d
       -0.032287348 -0.09029084 -0.049863122 0.04094389
0001e0 f8 cf 91 3d cb a6 00 be 81 60 52 3e db 78 18 be
       0.07119745 -0.12563626 0.20544626 -0.14889853
0001f0 79 08 10 3c 66 82 ae bd 4a 04 7d 3d 8d ee 34 3d
       0.008791083 -0.08520965 0.06177167 0.044172812
000200 22 bf b6 bc 38 cf c1 3c 9f fd 25 be e9 6c fa 3c
       -0.022307936 0.02365838 -0.1621003 0.03056951
000210 2f 0d dc bd f5 35 60 3e 44 84 8c bc bc 1c 0c be
       -0.10744702 0.21895583 -0.017152913 -0.13682836
000220 5e e5 40 bd dc 4e 7a 3e 86 31 2a be 73 92 13 3e
       -0.04709374 0.24444145 -0.16620454 0.14411335
000230 a8 89 5c 3e db 93 ea 3c 9f d4 08 be fe 69 b3 3d
       0.21536887 0.028634956 -0.13362359 0.08760451
000240 39 4e df 3d 44 fa 24 be 32 e9 d0 3d a3 5e e4 bd
       0.10903592 -0.16111094 0.102007285 -0.11150863
000250 bf 2a 77 be 12 25 68 bd 66 d9 07 3d dc 77 8d 3d
       -0.241374 -0.056675978 0.03316631 0.06907627
000260 ff 21 99 bc 52 f1 86 3e 60 9c 8e bd 94 cf 5a bd
       -0.018692968 0.26355988 -0.0696342 -0.05342062
000270 38 5f 11 bd 7c a4 ca 3d a5 12 35 3d d6 e1 55 be
       -0.0354912 0.09894654 0.044207234 -0.20886931
000280 53 66 2c 3d c8 4e ba 3d 02 54 f2 bd 37 28 09 be
       0.04208977 0.090970576 -0.118324295 -0.13394247
000290 fc 43 5e 3e eb d7 a3 bd 76 30 c5 3d aa a7 70 3e
       0.21705621 -0.080001675 0.09628384 0.23501459
0002a0 c9 89 f1 3d ed 74 a1 3d 82 c8 e9 bd 97 54 f4 3d
       0.117938586 0.0788363 -0.11415197 0.11930197
0002b0 07 66 38 be 7f e4 d5 bd 03 0c 22 bc 65 8d 32 3a
       -0.1800767 -0.10443973 -0.009890559 0.00068112306
0002c0 ab 2c 1b 3b b0 55 99 3c 6c fb 0f be c0 75 e9 39
       0.0023677747 0.018717617 -0.14060754 0.00044528954
0002d0 dc d9 35 bd 6c d7 23 be ca 14 ab 3d a8 c0 a7 3d
       -0.04439722 -0.16000146 0.083535746 0.08191043
0002e0 cf 32 e6 3d c4 7f 97 bc e8 ad 21 3e 97 ff cb 3d
       0.1124016 -0.01849354 0.15788996 0.09960859
0002f0 1c d1 de 3d 48 c0 17 bc 1a 82 30 3d d5 e9 09 bd
       0.10879728 -0.009262152 0.043092825 -0.033670265
000300 da 0c 8c 3c 29 f7 04 3e 96 7a 6e bd 01 e4 81 bd
       0.017095972 0.12984909 -0.058222376 -0.063423164
000310 00 81 8f 3d 50 94 11 be b8 70 8f 3d 09 e5 2d 3e
       0.07007027 -0.14216733 0.07003921 0.16981901
000320 00 20 14 3e b3 e7 85 3d fd 51 3d bd e4 1a b9 bd
       0.14465332 0.06538334 -0.04622077 -0.09038332
000330 82 aa d0 bd 74 04 b2 3d 83 72 b3 bd 02 ac 70 be
       -0.10188772 0.086922556 -0.08762076 -0.23503116
000340 e1 29 a2 be 0c ee 0e be 85 86 15 3d 95 9e 24 bd
       -0.31672576 -0.13957995 0.03650524 -0.040190298
000350 63 69 e8 3d 80 77 a9 be fa b9 3a 3e c4 26 99 3e
       0.11348226 -0.33098984 0.18235007 0.29912388
000360 71 a6 f5 bc 83 f7 ff 3d af 8a f1 bd 50 cb 34 3e
       -0.029986592 0.12498381 -0.1179403 0.17655683
000370 c8 d4 d1 3c 0b 01 01 3e 8b 1b 3c bc b3 da 2d bd
       0.025614157 0.12598054 -0.011481176 -0.042444896
000380 57 5f 64 3d 19 65 82 3d 39 be d5 3d 6c 64 26 bd
       0.055754986 0.06366939 0.10436673 -0.040623114
000390 37 08 dd bd d2 3f 26 3e 3e 8b 13 3d a2 29 93 bc
       -0.107925825 0.16235283 0.036021464 -0.017964188
0003a0 cf 06 14 be a7 c3 4b bc 64 8f 30 be f1 6b b1 3d
       -0.14455722 -0.012436784 -0.17242199 0.08663166
0003b0 7c 71 3f bd bc a0 73 3d c3 e7 28 bc e5 f9 8c bd
       -0.046739087 0.05947946 -0.010309163 -0.06883601
0003c0 00 db 1e 3e c5 e5 77 3d 56 f4 1a 3e ee 39 fc 3d
       0.1551323 0.06052186 0.1513227 0.12315737
0003d0 f7 1b f1 3d 48 8e 1c bc dd 31 44 bd f0 0f a7 3d
       0.11772912 -0.009555407 -0.047899116 0.08157337
0003e0 d8 73 a5 bc ff de e9 3d 5f 8d 36 bb 58 45 03 be
       -0.02019684 0.11419486 -0.002785526 -0.12819421
0003f0 c7 eb 9e 3d 9e ab 9d bd 5b 53 88 3c af 8d 4e 3e
       0.07759815 -0.07698749 0.01664131 0.20171236

layers.0.mamba.conv1d.weight f4 [40, 1, 4]
000000 9b 16 94 be 03 9e c7 be c4 b0 a4 bd d9 e3 3f 3d
       -0.28923497 -0.3898774 -0.08041528 0.04684815
000010 45 35 d9 bc b6 1a a4 3e 82 38 2e bc 05 88 74 3e
       -0.026514659 0.3205163 -0.01063359 0.23880012
000020 5f ad 71 3e ed ff e0 bd 2a a9 8f 3e ee ff 0f be
       0.23601292 -0.10986314 0.2805875 -0.14062473
000030 e9 4c 6c be bb dd 15 be 20 0d 85 be 1d 27 3d 3e
       -0.23076214 -0.14635365 -0.25986576 0.18471952
000040 ea 8d 06 be e7 85 2c bb 48 03 87 be 09 fe f5 3d
       -0.13140073 -0.002632493 -0.2636969 0.12011344
000050 ae a8 b4 bd 4e fc 44 be 42 7e ff 3c c0 92 fd 3d
       -0.088212356 -0.19236872 0.031188134 0.12381506
000060 59 74 86 3e d5 fc 7f bd 6c 1a 65 bd 81 ed 04 3e
       0.2626064 -0.06249698 -0.0559334 0.12981226
000070 e5 2d 97 3c 80 c8 25 3d 2c 34 b7 3d 6b 69 0a be
       0.018454501 0.040474415 0.08945498 -0.13516776
000080 35 dd 1d 3e 36 08 51 3e 27 2c 2a bb 3c 47 51 3e
       0.15416415 0.20413288 -0.0025966258 0.2043733
000090 33 a6 2e 3e 42 0f 76 3e 3b ec a8 bd f3 24 f5 bd
       0.17055587 0.24029258 -0.082481824 -0.11969938
0000a0 1d 56 c0 3c bf 67 06 3d 52 e3 e7 3d 0a 93 6b be
       0.023478562 0.032813784 0.11322655 -0.2300531
0000b0 72 3e 22 3e 56 c4 03 bd aa 76 36 3e 4d 8b 2b 3b
       0.15844133 -0.032169662 0.17818704 0.002617556
0000c0 92 da 62 be 84 83 25 be 3b 34 4e be 5c ca 1f 3d
       -0.2215369 -0.1616345 -0.20137112 0.039011344
0000d0 65 6d 09 be 3f 39 7e bb da eb 42 3d 2f c1 03 be
       -0.13420637 -0.0038791446 0.047588207 -0.12866662
0000e0 46 a2 42 3d ae 56 59 be 18 23 1b be b3 36 5a be
       0.047518037 -0.21224472 -0.15150106 -0.21309929
0000f0 5f b5 a8 bd d4 3e c3 bd ff f1 62 3c f8 78 73 bc
       -0.08237719 -0.09533468 0.013851642 -0.014860384
000100 26 70 19 3f 3c 9f 67 3f 14 a8 3c 3f 80 3d a0 be
       0.5993675 0.9047735 0.73693967 -0.3129692
000110 8d 1b e8 be 24 29 dc bd 0d 39 68 be ef 95 4f 3e
       -0.4533352 -0.107500345 -0.22678013 0.20272039
000120 18 dc 0d 3f e6 36 20 3f 9e b9 2f 3f e1 bd 85 3f
       0.5541396 0.6258377 0.68642604 1.0448571
000130 1e d2 c2 be 14 6e 35 bf c1 64 a6 be cf 9c 68 bf
       -0.38050932 -0.7087109 -0.32498744 -0.9086427
000140 42 db 97 3e 28 93 3f 3f c5 a3 33 3f 07 74 58 3f
       0.29659468 0.7483392 0.7017177 0.84552044
000150 f6 b6 37 bc 34 10 86 be d3 31 ad 3d 35 b5 9d 3f
       -0.011213055 -0.26184237 0.08456769 1.2320925
000160 74 b4 99 bd 13 45 2f be 12 18 b6 be 0a 7a 3a bf
       -0.07505122 -0.17116193 -0.3556524 -0.72842467
000170 b5 bd 2b 3f 48 80 12 3f a8 b9 5e 3f 97 94 b4 3e
       0.67086345 0.5722699 0.8700204 0.35269615
000180 95 5c 6c 3e b1 5b 6f 3e 46 8e 3e 3e 31 aa 6c 3e
       0.23082192 0.23374821 0.1860896 0.23111798
000190 3d ba 66 3e b7 bc 8f 3e d4 2f 8c 3e 6a 58 e0 bc
       0.22531982 0.28073665 0.2738024 -0.02738591
0001a0 98 ae 6b be a2 ad fb 3d 35 3f cb bd 85 be 6e be
       -0.23015821 0.12288977 -0.09924165 -0.23314865
0001b0 6f ee b9 3c 02 17 38 3e 62 9b b9 3e 62 58 43 3f
       0.022696702 0.17977527 0.3625136 0.76306736
0001c0 7b 12 d1 be 42 12 e0 be 3d 60 d8 be 0e e6 be be
       -0.40834412 -0.4376393 -0.42260924 -0.37284893
0001d0 10 aa 1d 3f ca d8 f0 3e 03 92 15 3f 15 af 98 3e
       0.6158762 0.47040397 0.5842592 0.29821077
0001e0 01 32 0d bf dd b5 01 bf 06 0a 56 bf a0 da 1c bf
       -0.55154425 -0.50668126 -0.83609045 -0.61271095
0001f0 4b a1 d3 be f5 bd 07 bf 1f c3 1c bf 24 99 9f bd
       -0.41333994 -0.53024226 -0.6123523 -0.07792881
000200 5d a3 3f 3f 55 e0 24 3f 4d 17 41 3f 56 36 ee 3e
       0.7485865 0.64404804 0.7542618 0.4652583
000210 21 d6 f0 be a7 7e a9 be 1e 1d df be 0b a3 fc be
       -0.47038367 -0.3310444 -0.43576902 -0.49343142
000220 6e 85 25 bf 5d 9e b9 be 35 ef 1c bf 4f 35 e7 be
       -0.6465672 -0.36253634 -0.613025 -0.4515786
000230 a5 10 41 be 6f 1d 18 bf 0b c1 09 bf 7d 7a 0a bf
       -0.18854006 -0.5941991 -0.53810185 -0.5409315
000240 d6 4e 81 3d 76 d0 be 3d 79 7f be 3e 79 c4 00 be
       0.06313865 0.093171045 0.3720663 -0.12574948
000250 bc da 83 be 8b 64 44 be 26 6f 16 be 00 b8 09 be
       -0.2575282 -0.19178979 -0.14690837 -0.13449097
000260 55 68 cb bd a9 06 23 3e ac b4 db 3d f9 8b 3d bd
       -0.09932009 0.1592051 0.1072782 -0.046276066
000270 26 9b 21 bf c9 84 04 bf 0c f9 0d bf b7 6d 0c bf
       -0.6312736 -0.51765114 -0.5545814 -0.5485491

layers.0.mamba.conv1d.bias f4 [40]
000000 77 07 46 be cb b7 af 3d 30 36 82 be 72 2f 17 be
       -0.19338785 0.085799776 -0.25431967 -0.14764193
000010 04 b0 44 be a8 08 05 3e 09 32 14 be 2c 23 c7 bd
       -0.1920777 0.12991583 -0.14472212 -0.097235054
000020 83 95 36 3e 7d fc ea 3d ac 74 f6 3d 46 ef 8b be
       0.17830472 0.114739396 0.12033972 -0.2733099
000030 1b b3 2d be df 6d d4 bd ea b9 23 3e 92 bd c6 3d
       -0.16962855 -0.10372519 0.1598889 0.097041264
000040 5e 13 77 3d e2 74 eb 3e 87 9c 98 bd 4e 97 d7 3c
       0.060321204 0.45987612 -0.0745173 0.026317265
000050 5f 61 06 bd e3 65 0d 3f af 34 b1 3e ea 11 ad 3d
       -0.032807704 0.5523359 0.34610507 0.084506825
000060 b0 8b 2e 3e 01 30 c8 ba 13 87 41 3e 0c 08 bb 3e
       0.17045474 -0.0015273095 0.18899183 0.36529577
000070 4f 34 81 be 7e dd b7 3c 63 27 54 3f 45 b9 b2 3e
       -0.2523522 0.022444483 0.828726 0.34906974
000080 6b 58 e1 3e e8 31 6c 3f a6 45 48 3f 71 ab 1b 3f
       0.4401277 0.9226365 0.78231275 0.60808474
000090 6e 1a 03 3e 27 6c e1 b9 c7 53 6d 3e 3e cf 4f 3f
       0.12803051 -0.00042995924 0.2317649 0.811756

layers.0.mamba.norm.weight f4 [16]
000000 3d fe 11 3f 0d 8c e0 3e 94 96 f9 3e 95 cc fb 3e
       0.5702856 0.4385685 0.48747694 0.4917952
000010 6e 10 07 3f e6 07 09 3f eb 43 fd 3e e6 f4 11 3f
       0.52759445 0.5352768 0.4946588 0.5701431
000020 b3 53 df 3e c7 97 20 3f a7 9d 2e 3f f7 a1 1a 3f
       0.43618545 0.62731594 0.6820931 0.6040339
000030 9a 04 13 3f c6 4d fa 3e 44 c6 c2 3e c8 5f 1a 3f
       0.57428896 0.4888746 0.3804189 0.603024

layers.0.mamba.out_proj.weight f4 [8, 16]
000000 d9 cb 74 bc b0 0f 67 bd cd f4 8a 3d 00 02 3d bd
       -0.014941179 -0.056411445 0.06784973 -0.046144485
000010 19 aa bd 3c e4 ec 87 bd 0e 28 f7 bc 89 59 a1 3d
       0.023152398 -0.0663698 -0.030170467 0.078784056
000020 e4 db 9e 3d 9a 12 51 be f2 1d 48 be b3 a3 61 bd
       0.077567846 -0.20417252 -0.19542673 -0.055087756
000030 08 92 9e 3c b0 ee 6b bd bc 52 94 bc 87 41 17 be
       0.019356743 -0.057600677 -0.018105857 -0.1477109
000040 6b 26 3e bd 55 ef 20 3d 6f 12 06 bc c5 e6 d7 bd
       -0.046423357 0.039290745 -0.008183106 -0.10542063
000050 5f c9 6c bb df 67 b2 3c ae c8 db 3b 06 ec 34 3e
       -0.0036130769 0.021778045 0.0067072725 0.17668161
000060 f7 46 41 bd 02 86 f1 bd 90 fa 99 bc e6 33 d2 bd
       -0.047186818 -0.11793138 -0.018796235 -0.10263805
000070 d7 8e 12 3c 18 00 15 bd 74 b6 89 bd 05 7c 04 be
       0.0089451885 -0.036377043 -0.06724253 -0.12937935
000080 bf e6 16 3e e3 e9 1d bd 34 88 7b 3d ab 33 96 bc
       0.1473646 -0.03855313 0.06140919 -0.018335184
000090 9e 2f 40 bd 47 1a dc bd 7c 7d f6 3d b5 d2 3d 3d
       -0.04692041 -0.107471995 0.12035653 0.046343524
0000a0 de bf f7 3c 15 7c 12 be 75 bc c1 bd bd 14 04 3e
       0.030242857 -0.14305146 -0.094597735 0.12898536
0000b0 ea 1e 53 3e 66 e9 57 bd 3f 30 32 3b 92 cb aa 3d
       0.20617262 -0.05271282 0.0027189401 0.08339609
0000c0 8c 6a 15 be e4 86 90 3d 5d d3 10 bd e0 c4 b7 bd
       -0.14591426 0.07056978 -0.03535782 -0.08973098
0000d0 31 e7 a6 3d 3b c1 71 3d a6 ba 9f bd c1 05 ae bb
       0.08149565 0.05902217 -0.07799272 -0.0053107445
0000e0 01 ba 25 bd d1 0f cc 3d f2 4c 4d 3e 05 04 b1 bd
       -0.04046059 0.09963954 0.20048884 -0.08643345
0000f0 82 bd 58 bd a2 75 36 3d 06 32 a3 bb bb 03 ad 3d
       -0.052915104 0.044545777 -0.0049803285 0.08447977
000100 1f 6a a7 3d e9 12 23 bd ec 83 e6 3b 5a 42 ac bc
       0.08174538 -0.039812956 0.0070347693 -0.021027733
000110 00 4c 41 be 08 45 ae 3c f2 b8 6d 3d bf 27 31 bd
       -0.18876648 0.021273151 0.058037706 -0.043250795
000120 7e b1 8b bd 3f 63 bd 3d f8 92 83 bc 60 d6 b1 3d
       -0.06820963 0.09247445 -0.016061291 0.08683467
000130 e9 1f 69 3e b6 41 92 3d 49 26 b0 3c 34 13 05 3e
       0.22766079 0.071414396 0.02150263 0.12995607
000140 ff b8 9f bd 8b f8 9b 3d 60 9b 54 bd 68 de d0 3c
       -0.07798957 0.07615765 -0.05190599 0.025496677
000150 7b ff 83 ba be b2 68 3d 9c 53 62 bd 34 00 ba bc
       -0.0010070646 0.056811087 -0.055255517 -0.022705175
000160 df 5c 65 bd 01 fe 17 be 1e 5c 27 be f7 34 22 be
       -0.055996772 -0.14842989 -0.16343734 -0.15840517
000170 5f a1 37 bd cc d3 be 3c 28 5d 84 3d 3b d8 02 be
       -0.04483163 0.023294352 0.06463081 -0.12777798
000180 c7 7d e6 3c 05 e1 84 bd f6 3f 00 3d 45 7a af 3d
       0.028136147 -0.064882316 0.031310998 0.08568243
000190 71 27 9b bd 77 81 c1 3c 20 d5 a9 3d 10 47 45 bd
       -0.07575882 0.023621304 0.082926035 -0.048163474
0001a0 d0 33 65 3c f8 f8 14 3e de 0a 13 3e 90 7c 17 3e
       0.013989404 0.14548099 0.14359614 0.1479361
0001b0 d1 1f d2 bd 5a 85 86 3d 5c a4 ae bd 68 c3 27 3e
       -0.10259975 0.065684035 -0.08527443 0.16383135
0001c0 07 b4 54 3d 20 8e bc bc fc 5b d7 3a 85 75 80 3d
       0.0519295 -0.02301699 0.0016430612 0.06272415
0001d0 2e 86 2f bd dd 9d 16 3d 4a 20 d2 3c 14 2d 2a be
       -0.042852573 0.036771644 0.025650162 -0.16618758
0001e0 4d 86 29 3c cd de 27 3e 85 f4 f5 3d 6b 8c 01 3e
       0.010346961 0.16393586 0.12009529 0.12651221
0001f0 10 49 1e bc 6f 0a f2 3d dc 28 4b 3d d4 e1 a8 3d
       -0.009660974 0.11818396 0.049599513 0.08246198

norm_f.weight f4 [8]
000000 a6 6a 40 3f cb 4a 37 3f 6c df 31 3f c7 47 01 3f
       0.7516273 0.715985 0.6948154 0.5050015
000010 a4 26 28 3f 29 7d 33 3f a4 90 47 3f 8c 6f 2d 3f
       0.6568396 0.70112854 0.7795508 0.6774833

norm_f.bias f4 [8]
000000 c0 42 60 3d 18 92 5d 3d 01 b0 88 bd 95 06 48 3d
       0.054751158 0.054094404 -0.06674195 0.048834402
000010 6e cc 53 bd 0b f5 5c 3d 4c a8 60 bd b2 9e 58 bd
       -0.05170863 0.05394463 -0.054848 -0.05288572

head.weight f4 [1, 8]
000000 fc b0 a9 be 6b 39 b0 be 9a 7d 23 3e 80 22 ae bd
       -0.3314284 -0.34418806 0.15965882 -0.08502674
000010 9a a4 92 3e 38 83 b9 be 6a f3 af 3e ad 21 b2 3e
       0.28641206 -0.36232924 0.34365398 0.34791318
