healthy state/best_model.pth (torch, 61686 bytes, 18 tensors)

gru1.weight_ih_l0 f4 [144, 18]
0	0x3e4303a8	0.19044363
1	0x3e500a4e	0.20316431
2	0x3ddeca32	0.108784094
3	0xbd542974	-0.051797345
4	0x3d76a01b	0.060211282
5	0x3da98c6f	0.08278739
6	0xbc35c740	-0.011094868
7	0x3ce01ed3	0.027358448
8	0xbdc2d0f6	-0.095125124
9	0xbcb2fb7a	-0.021848429
10	0x3c85d800	0.016338348
11	0xbd3cd79f	-0.04610407
12	0x3d3f18db	0.046654563
13	0xbdbc2f5a	-0.09188719
14	0xbdbf7c03	-0.09349825
15	0x3e186361	0.1488166
16	0x3dcabe8a	0.09899624
17	0x3d84ed19	0.06490535
18	0x3e3b999b	0.18320315
19	0x3e02ab0a	0.12760559
20	0x3dda5773	0.10661211
21	0xbe5abe95	-0.21361764
22	0xbc9b931d	-0.018991048
23	0x3e6dd410	0.23225427
24	0x3e7ee316	0.24891314
25	0x3d3a581d	0.045494188
26	0xbe272514	-0.16322738
27	0xbe621230	-0.2207725
28	0xbddf3581	-0.10898877
29	0xbe1200f5	-0.14258178
30	0x3d609f91	0.054839674
31	0x3c98121b	0.01856332
32	0xbe1e2f35	-0.15447696
33	0x3e02c497	0.12770306
34	0x3e09f371	0.13471772
35	0x3df74f42	0.12075664
36	0x3d916a91	0.07100404
37	0xbd75f746	-0.06005027
38	0xbdd5a0b4	-0.10431042
39	0x3dee84bc	0.11646411
40	0x3d8613bb	0.06546732
41	0x3d0fd173	0.035111856
42	0x3d8e4e47	0.06948524
43	0x3cbbf953	0.022946035
44	0xbda82b01	-0.08211327
45	0x3c735140	0.0148509145
46	0xbd8b72a4	-0.06808975
47	0x3d25ba57	0.04046091
48	0xbda912a0	-0.082555056
49	0x3c9dad42	0.019247655
50	0xbca6b282	-0.020348791
51	0x3b8dca69	0.0043271077
52	0xbcddc055	-0.02706925
53	0x3d89638f	0.067084424
54	0x3d0fd7a0	0.035117745
55	0xbcbb402f	-0.022857754
56	0x3c430f1a	0.011905456
57	0xbd4e8ac4	-0.050425306
58	0x3daa5f75	0.08318988
59	0x3d716cec	0.058941767
60	0x3e2bed87	0.16789828
61	0x3d9cd68b	0.07658108
62	0x3cee8ab7	0.029118879
63	0x3d8cc661	0.06873775
64	0xbbe21f7f	-0.0069007273
65	0xbd335ccf	-0.04378968
66	0xbcf67a41	-0.030087592
67	0x3d8d65a5	0.06904153
68	0xbd8a1c30	-0.067436576
69	0x3df195e0	0.117961645
70	0x3dd2d70a	0.10294922
71	0xbd14f090	-0.03636223
72	0xbbacad9a	-0.0052697184
73	0xbdb9efa0	-0.09078908
74	0xbda683f8	-0.0813064
75	0x3d931ef3	0.071836375
76	0xbde141cd	-0.10998879
77	0xbdf1a34e	-0.11798726
78	0xbdd37fa8	-0.10327083
79	0xbe2fb30e	-0.17158148
80	0xbd30d20d	-0.04316907
81	0x3d009e18	0.03140077
82	0x3d9a254b	0.07526644
83	0xbc4d9931	-0.012548731
84	0xbe152f3f	-0.14568804
85	0xbd66ad25	-0.056317467
86	0xbda346a2	-0.079724565
87	0xbe66ef5b	-0.22552244
88	0xbe08e50d	-0.13368626
89	0xbc0c59ee	-0.008566363
90	0xbe0192ba	-0.12653628
91	0x3e5751c2	0.21027282
92	0xbdf70b9d	-0.12062762
93	0x3e0f0b7f	0.13969229
94	0xbd5eb973	-0.054376077
95	0xbd57a859	-0.052650783
96	0xbd6cf0dc	-0.05784689
97	0xbd019345	-0.031634588
98	0x3dc53ad6	0.09630363
99	0x3e526502	0.20546344
100	0xbccbb2de	-0.024865564
101	0x3c903f48	0.0176083
102	0xbd9f8c46	-0.07790427
103	0xbde62441	-0.11237384
104	0xbc856a4d	-0.01628604
105	0xbdc319d2	-0.09526409
106	0xbd7a8d78	-0.06117007
107	0xbcb6f301	-0.02233267
108	0x3ca47a0c	0.020077728
109	0xbe375e2a	-0.17907014
110	0x3e6e96c3	0.23299699
111	0x3dfdd847	0.12394767
112	0x3e1b09d8	0.15140474
113	0x3df340c0	0.118775845
114	0x3d368e07	0.04456904
115	0xbdd5e6e6	-0.10444431
116	0x3dea2018	0.11431903
117	0x3dbddcc5	0.09270624
118	0x3d821945	0.06352476
119	0x3dc0ae6c	0.09408268
120	0x3d98f83b	0.07469221
121	0x3c45aead	0.012065572
122	0x3e233e0e	0.1594164
123	0x3e8c31a0	0.2738161
124	0x3e190c57	0.14946114
125	0xba4d1a52	-0.00078240514
126	0xbd66b974	-0.056329206
127	0xbc8d04fa	-0.017214287
128	0xbcc95213	-0.024575269
129	0x3d9dcd59	0.077051826
130	0x3d0e6df0	0.034772813
131	0x3da0f125	0.07858495
132	0x3c6a0213	0.014282721
133	0x3dc8f42c	0.09812197
134	0x3e37d529	0.17952408
135	0x3d73ea99	0.0595499
136	0x3cefd329	0.029275494
137	0x3d7c6774	0.061622098
138	0xbd6f8ad7	-0.058482017
139	0xbd3015b9	-0.042989466
140	0x3da1dc9a	0.079034045
141	0xbd24b42b	-0.040210884
142	0x3c7957c2	0.015218677
143	0x3d982cb7	0.07430404
144	0x3ba0e618	0.004910242
145	0x3ca6d5b9	0.020365583
146	0x3cce6739	0.025195705
147	0xbdea35ea	-0.114360645
148	0x3b5eff02	0.0034026508
149	0x3d294488	0.041325122
150	0xbd7dcb79	-0.061961625
151	0xbc8dd066	-0.017311286
152	0xbccde539	-0.025133716
153	0xbdb597e0	-0.088668585
154	0xbc08568f	-0.008321418
155	0xbd83ed05	-0.06441692
156	0xbd8e1703	-0.06937983
157	0xbd16d1be	-0.03682112
158	0xbe07b7f1	-0.13253762
159	0xbd46e966	-0.04856243
160	0xbbef5e89	-0.0073049706
161	0x3dacf9bc	0.084460706
162	0xbc2b2fb9	-0.01044839
163	0xbe4b2db1	-0.19841649
164	0xbe31ffff	-0.17382811
165	0x3d7b9763	0.06142367
166	0x3d577a28	0.05260673
167	0xbcf03952	-0.029324207
168	0xbdf6f784	-0.120589286
169	0xbdf3f323	-0.11911609
170	0xbc55b6c2	-0.013044061
171	0xbd2000b2	-0.039063163
172	0x3d75067e	0.059820645
173	0x3d92cfcf	0.071685426
174	0x3cd0ed74	0.025503851
175	0xbd8e5924	-0.06950596
176	0x3db6f811	0.08934034
177	0xbe54a6e1	-0.20766784
178	0xbe0a7e17	-0.13524662
179	0xbd8cf755	-0.06883112
180	0x3cc0f245	0.023553023
181	0xbe03b6fd	-0.12862773
182	0x3a63a8b7	0.0008684503
183	0x3dacdb7f	0.08440303
184	0x3d2c5287	0.04207089
185	0xbb8176ae	-0.0039509153
186	0x3db940dc	0.09045574
187	0x3d02d42f	0.031940635
188	0x3cac3f57	0.021026297
189	0xbd82f228	-0.06393844
190	0x3d96a023	0.073547624
191	0xbdc7b207	-0.09750753
192	0xbbf94dcc	-0.007608151
193	0xbd711f05	-0.058867473
194	0x3b983783	0.0046452894
195	0xbda3db40	-0.08000803
196	0xbd6241c0	-0.055238485
197	0xbca99feb	-0.020706138
198	0xbde9ccae	-0.11415993
199	0x3e17956e	0.14803097
200	0x3d6aa86c	0.057289526
201	0x3df6a657	0.120434456
202	0x3dc2fe20	0.09521127
203	0xbe285ce2	-0.16441682
204	0xbdabd5ce	-0.083903894
205	0xbdd5d7bb	-0.10441538
206	0x3e1fa28c	0.1558935
207	0xbb4096d0	-0.0029386766
208	0x3db3c99c	0.08778688
209	0x3e1802e0	0.14844847
210	0x3c9944ef	0.018709628
211	0x3d84c433	0.064827345
212	0x39e40fe3	0.00043499385
213	0x3c31668a	0.01082767
214	0x3da74ca9	0.08168919
215	0xbcd2f894	-0.025753297
216	0x3b1b0463	0.0023653738
217	0xbd58fd18	-0.052975744
218	0xbdb55609	-0.088543005
219	0x3deffa78	0.11717695
220	0x3e01ba37	0.12668692
221	0x3da2cddc	0.07949421
222	0xbccf5db9	-0.025313245
223	0x3caff146	0.021477353
224	0x3e05e141	0.13074209
225	0x3dfd89de	0.12379812
226	0x3d3fe8d1	0.04685289
227	0x3cbb84f1	0.02289054
228	0xbc8accfe	-0.016943451
229	0x3d1b80ff	0.037964817
230	0xbd3da68c	-0.04630141
231	0xbd0f3582	-0.03496314
232	0xbd36ef8e	-0.04466205
233	0xbcb64a6f	-0.02225229
234	0x3d88055f	0.066416495
235	0x3e24abaf	0.16081117
236	0xbc9aa6cf	-0.018878369
237	0xbd45c7bd	-0.04828619
238	0xbcb46b19	-0.022023724
239	0xbdb96fb6	-0.0905451
240	0xbdc7f0ba	-0.09762712
241	0xbd180628	-0.037115246
242	0xbdf2539e	-0.11832355
243	0xbde530a7	-0.1119092
244	0xbda427a2	-0.08015372
245	0xbe46bb2a	-0.19407335
246	0xbdd5d47e	-0.1044092
247	0xbd471396	-0.048602663
248	0xbd56d05a	-0.052444793
249	0x3da2acbe	0.07943104
250	0xbc1eaa75	-0.009684195
251	0x3c7364e9	0.014855602
252	0x3d44c7a9	0.048041973
253	0xbe303f77	-0.1721171
254	0xbd825339	-0.0636353
255	0xbe402b6b	-0.18766563

gru1.weight_hh_l0 f4 [144, 48]
0	0x3dec1dc6	0.11529116
1	0xbd872727	-0.065992646
2	0xbebf6e2a	-0.37388736
3	0x3dacec48	0.084435046
4	0xbb5c7753	-0.0033640459
5	0xbd86abef	-0.065757625
6	0xbdb63514	-0.088968426
7	0x3d7e3ec7	0.062071588
8	0x3e1083ac	0.14112729
9	0x3d2053c4	0.039142385
10	0x3b3fa454	0.0029242234
11	0xbcc594f1	-0.024118872
12	0x3d42488a	0.04743246
13	0xbded6c78	-0.115929544
14	0xbc2ead1b	-0.010661389
15	0xbdc92196	-0.09820859
16	0xbe74918a	-0.23883644
17	0xbdd8f75a	-0.105940536
18	0x3db5f514	0.088846356
19	0x3d968ff7	0.07351678
20	0x3dae2131	0.085024245
21	0xbdbd372c	-0.09239039
22	0x3dc37b09	0.095449515
23	0x3f0a8213	0.5410473
24	0xbc597213	-0.013271826
25	0x3e0710bb	0.13189976
26	0x3d2ad58a	0.041707553
27	0xbc3dfc25	-0.0115957605
28	0xbe3530ba	-0.17694369
29	0x3d689148	0.056779176
30	0x3d7fceb7	0.062452998
31	0x3d3a983c	0.04555534
32	0x3d434d9a	0.04768143
33	0xbd1ec8ac	-0.038765594
34	0xbe22a07e	-0.15881535
35	0xbe14ebfe	-0.14543149
36	0x3e12dbb8	0.14341629
37	0xbda188a9	-0.07887394
38	0x3d175de1	0.036954764
39	0x3e50fd8d	0.20409222
40	0xbc428389	-0.011872181
41	0x3d2ae5bf	0.04172301
42	0x3c8365e6	0.0160398
43	0xbdfc6e06	-0.12325673
44	0x3de92cca	0.11385496
45	0x3e2e540c	0.17024249
46	0x3e515840	0.20443821
47	0xbd643931	-0.055718604
48	0xbc8f2638	-0.017474279
49	0xbc2c907c	-0.010532495
50	0xbd94c2e2	-0.072637334
51	0x3c8cdbfd	0.017194742
52	0x3d274d7f	0.04084539
53	0xbebf1563	-0.37321004
54	0x3d21bdd5	0.03948768
55	0xbe7ad317	-0.24494587
56	0xbdedda3a	-0.11613889
57	0x3d99bf57	0.07507198
58	0xbdd4e3e8	-0.10395032
59	0xbc9c4718	-0.019076869
60	0x3cfcf4e8	0.0308785
61	0xbc983369	-0.018579202
62	0xbe9ba6c5	-0.30400673
63	0xbdc0e18e	-0.09418021
64	0xbd488b8e	-0.048961215
65	0x3e5ea19c	0.21741337
66	0xbe1e56b4	-0.15462762
67	0x3e32bd70	0.17455077
68	0x39309808	0.00016841304
69	0xbec6a1ca	-0.3879531
70	0xbcd997ec	-0.0265617
71	0xbcfdc486	-0.030977499
72	0xbc22ff5b	-0.009948577
73	0x3c75af81	0.014995457
74	0x3dc7f0af	0.097627036
75	0x3de17bb3	0.11009922
76	0xbe93fbeb	-0.28903136
77	0xbd1a630e	-0.037692122
78	0x3d9ae561	0.07563282
79	0xbe11fac4	-0.14255816
80	0xbd5e7cf0	-0.05431837
81	0xbe8e546a	-0.27798778
82	0x3d638101	0.05554295
83	0xbe9b5921	-0.30341437
84	0x3e286a8f	0.16446899
85	0xbe040c09	-0.12895216
86	0xbe95a437	-0.29226848
87	0x3e496c86	0.19670305
88	0x3aa27bd8	0.0012396527
89	0xbdd46619	-0.10371036
90	0x3de9519a	0.113925174
91	0x3dc66a7d	0.0968828
92	0x3d5b85eb	0.05359451
93	0x3ddff2bf	0.10934972
94	0x3d4733d9	0.04863343
95	0xbe57e1ff	-0.21082304
96	0x3de93ac8	0.11388165
97	0x3cdea415	0.02717785
98	0x3ccec9bd	0.02524268
99	0x3e540838	0.2070626
100	0xbca8abcc	-0.020589732
101	0x3c71f302	0.01476741
102	0x3d8e5274	0.069493204
103	0x3d66c75c	0.056342468
104	0x3e1e785d	0.15475602
105	0x3d5aeaef	0.053446706
106	0x3d430175	0.04760881
107	0x3ddd7e04	0.10815051
108	0x3db5d5d4	0.08878675
109	0xbd97f0cf	-0.074189775
110	0x3e4dee33	0.20110397
111	0xbd9e9522	-0.077432886
112	0x3bc8aa48	0.0061238147
113	0x3c032a47	0.008005685
114	0x3e3446c9	0.17605127
115	0xbdc1558c	-0.09440145
116	0x3e58b54c	0.2116291
117	0xbd0c1f99	-0.03420982
118	0x3e566806	0.2093812
119	0xbe077a49	-0.13230242
120	0x3d00e856	0.031471573
121	0x3df514d9	0.11966867
122	0xbe197315	-0.14985307
123	0xbd8d7760	-0.069075346
124	0xbda839a0	-0.08214116
125	0xbc9da324	-0.01924283
126	0x3c808186	0.015686762
127	0x3d31868a	0.043341197
128	0xbe52568b	-0.20540826
129	0x3d97df71	0.07415665
130	0xbdce0f60	-0.10061526
131	0x3bf200f3	0.007385367
132	0x3cc608d9	0.02417414
133	0x3de1f8d4	0.11033788
134	0x3e18457f	0.1487026
135	0x3a28dc2d	0.00064415
136	0x3d25c168	0.04046765
137	0x3c576711	0.013147132
138	0xbdee747f	-0.116433136
139	0xbd979aac	-0.07402548
140	0xbd40ac09	-0.047039066
141	0x3e52e92b	0.20596759
142	0xbd0dab6b	-0.034587305
143	0x3e14bf56	0.14526114
144	0x3d967fc0	0.07348585
145	0xbe49be87	-0.19701587
146	0x3d89632b	0.06708368
147	0xbe1a3a77	-0.15061365
148	0x3cac11b2	0.021004532
149	0x3d4d0a48	0.050058633
150	0x3d9ea76b	0.07746776
151	0x3da702b9	0.08154816
152	0xbe138bf8	-0.14408863
153	0xbd719db8	-0.058988303
154	0xbdce4523	-0.100717805
155	0xbc7f45da	-0.015580619
156	0xbd82d890	-0.06388962
157	0x3c9090c8	0.017647162
158	0x3e8a12ac	0.2696737
159	0x3d5fa52f	0.05460089
160	0x3dbe7140	0.092989445
161	0x3db5064b	0.08839091
162	0x3dcd617b	0.100283585
163	0x3cd0aab5	0.025472024
164	0xbdf17b3c	-0.11791083
165	0xbd0eb315	-0.034838755
166	0xbe2a4769	-0.16628803
167	0xbd59140e	-0.05299764
168	0xbc5b3bbb	-0.01338094
169	0x3dd4ef6f	0.10397231
170	0xbc434c67	-0.011920071
171	0xbdce5283	-0.100743316
172	0x3e0e4bbf	0.13896082
173	0xbdd7b4a9	-0.10532505
174	0x3d4fd126	0.05073657
175	0x3d3cc631	0.046087448
176	0x3dcbb6f2	0.099470034
177	0xbb9e290d	-0.004826671
178	0x3de218de	0.11039899
179	0x3e1ae8e3	0.15127902
180	0x3d374146	0.044739984
181	0x3cf2b9f1	0.02962968
182	0x3dcb884e	0.099381074
183	0xbe1cd410	-0.1531527
184	0x3db1d2f2	0.08682813
185	0xbdf3ee1f	-0.11910652
186	0xbe2a9eee	-0.1666219
187	0xbca37b16	-0.019956153
188	0xbe295f4c	-0.16540259
189	0xbcafe347	-0.021470679
190	0xbe26bf59	-0.16283931
191	0x3d3cd741	0.04610372
192	0x3ca69f21	0.02033955
193	0x3cc6ee40	0.024283528
194	0x3dc41bb1	0.09575594
195	0x3d202707	0.03909972
196	0x3e5b64c6	0.21425161
197	0x3deaaedd	0.11459134
198	0xbd867d5c	-0.06566879
199	0xbdc8269a	-0.09772988
200	0xbd4bc6cd	-0.049750138
201	0x3d95689a	0.07295342
202	0xbcba2605	-0.022723207
203	0xbe1846d1	-0.14870764
204	0xbd16eefc	-0.036849007
205	0x3e0b74b0	0.13618731
206	0xbe042f43	-0.12908654
207	0xbd560dbb	-0.05225919
208	0x3dc1fcd4	0.09472051
209	0x3d4f367b	0.050589066
210	0x3dc520f8	0.09625429
211	0x3bc14c99	0.0058990237
212	0xbd9ae704	-0.07563594
213	0x3d92db11	0.0717069
214	0xbdecbeeb	-0.11559852
215	0xbda4c59f	-0.08045506
216	0xbdc515e1	-0.09623314
217	0xbd1802bf	-0.037111994
218	0x3d78cb14	0.060740545
219	0x3c88a985	0.016682396
220	0xbd905b84	-0.07048705
221	0xbd9e0ec3	-0.07717659
222	0xbe2ce21e	-0.16883132
223	0xbd9588e4	-0.073015004
224	0x3da657db	0.08122226
225	0x3d3cfb2e	0.04613798
226	0x3daaf7c3	0.08348038
227	0x3d24f574	0.040273145
228	0xbdd22511	-0.10260976
229	0xbd11770a	-0.035513915
230	0xbcf7f4fd	-0.030268187
231	0xbe347cae	-0.17625687
232	0xbdd1f353	-0.102514885
233	0xbd9c49fc	-0.07631299
234	0xbe58c8ae	-0.21170303
235	0x3d8e77bf	0.069564335
236	0xbd465c3b	-0.0484278
237	0xbd00764e	-0.031362824
238	0xbd897a7d	-0.06712816
239	0xbcc5d0b8	-0.024147376
240	0x3d3aee79	0.04563758
241	0x3deb4f68	0.11489755
242	0x3cf63187	0.030052913
243	0x3dfbbd53	0.1229197
244	0x3db4c596	0.08826749
245	0x3cafa0e0	0.021439016
246	0x3c194720	0.009355336
247	0x3dc88067	0.09790116
248	0xbd5355b5	-0.05159541
249	0xbdd62dd6	-0.10457961
250	0x3e0011ce	0.12506792
251	0x3d5ac573	0.05341096
252	0x3d952fc9	0.07284505
253	0xbdc0bba3	-0.09410789
254	0x3e285e56	0.16442236
255	0x3db4bcd8	0.088250816

gru1.bias_ih_l0 f4 [144]
0	0xbe23abee	-0.15983555
1	0x3d19c1d6	0.037538372
2	0xbbe15bba	-0.0068773897
3	0x3bf058e9	0.0073348177
4	0x3e494e83	0.19658856
5	0xbdc3a120	-0.095522165
6	0x3df2363e	0.11826752
7	0xbcc9944f	-0.024606852
8	0x3eb7e2f5	0.35915342
9	0x3cd89daf	0.026442377
10	0x3dc0f845	0.09422354
11	0x3e05afaf	0.13055299
12	0x3d7cabd0	0.06168729
13	0x3d4e519a	0.05037079
14	0x3e7e581f	0.24838303
15	0x3dc2ca38	0.095112264
16	0x3d89f6e4	0.06736544
17	0x3e6aa34f	0.2291386
18	0x3e0065ed	0.12538882
19	0xbdb3c532	-0.087778464
20	0x3da3cc88	0.079979956
21	0xbdb29aa8	-0.087209046
22	0x3e146795	0.14492638
23	0x3d632a6b	0.055460375
24	0xbde3fbb0	-0.1113199
25	0xbb1bd797	-0.0023779625
26	0x3b856460	0.0040708035
27	0xbd1ccc1a	-0.038280584
28	0x3c1db709	0.0096261585
29	0x3d11b866	0.035576247
30	0x3da933bf	0.08261823
31	0x3e5db324	0.21650368
32	0x3ddb938a	0.107215
33	0x3d50fd53	0.05102284
34	0x3dc74226	0.09729414
35	0xbbe9589a	-0.007121158
36	0x3db0661c	0.08613226
37	0x3d479cdb	0.048733573
38	0x3d18eb34	0.037333682
39	0x3e0ed5df	0.13948773
40	0x3d423164	0.047410384
41	0x3d6a5d9a	0.05721817
42	0xbd0e7e7d	-0.034788597
43	0x3d008665	0.03137817
44	0xbe893005	-0.26794448
45	0x3e09dbcc	0.13462752
46	0x3df872cf	0.12131273
47	0x3c15b1a4	0.009136591
48	0xbd70f6e2	-0.058829196
49	0xbeb1894d	-0.34675065
50	0xbcf0033c	-0.029298417
51	0xbf2ffd0d	-0.687455
52	0xbe9ec113	-0.3100668
53	0xbe46c936	-0.19412693
54	0xbe6d3f9b	-0.23168795
55	0xbd3c3581	-0.045949463
56	0xbc0a31f8	-0.008434765
57	0xbde7296e	-0.11287199
58	0xbc7ce72b	-0.015435974
59	0xbd10631c	-0.035250768
60	0xbe21d002	-0.15802005
61	0x3cd69585	0.026194343
62	0xbe257906	-0.16159448
63	0x3e1f8954	0.1557973
64	0xbd6973b1	-0.056995098
65	0xbe98a56d	-0.2981371
66	0xbf34caa8	-0.7062173
67	0xba3b6ebb	-0.0007149984
68	0xbe5978c2	-0.21237472
69	0xbee18ec2	-0.44054228
70	0xbd165e84	-0.03671123
71	0xbdeb7b5e	-0.1149814
72	0xbecceac9	-0.40022877
73	0xbdfed2a5	-0.12442521
74	0x3cbda4e5	0.023149917
75	0xbd7b8f8b	-0.06141619
76	0xbdf6a6cd	-0.120435335
77	0xbe7c9f34	-0.24670106
78	0xbdda2837	-0.106522016
79	0xbe1a5211	-0.15070368
80	0xbe32b75e	-0.17452762
81	0xbd0ae7e5	-0.033912558
82	0x3c051e0a	0.008124838
83	0xbe5edfac	-0.21765012
84	0x3c600081	0.013671995
85	0xbf02065d	-0.5079096
86	0x3d2d77b9	0.042350505
87	0xbc3388da	-0.010957921
88	0x3e075d66	0.13219222
89	0xbe825210	-0.25453234
90	0xbedf3f5e	-0.43603033
91	0xbe926dac	-0.28599298
92	0xbde1619a	-0.11004944
93	0xbb1cad1c	-0.0023906892
94	0xbdbe9968	-0.09306604
95	0xbe64d44c	-0.2234661
96	0x3d8a6cf8	0.067590654
97	0x3c197a68	0.009367563
98	0x3dd63ac3	0.10460427
99	0xbe199a7d	-0.15000339
100	0x3def693d	0.116899945
101	0xbd3ccae7	-0.04609194
102	0x3b319275	0.0027095352
103	0xbdaf6c21	-0.08565546
104	0xbeab97ea	-0.3351434
105	0xbd232a6e	-0.039835386
106	0xbe173b6c	-0.14768761
107	0xbd037f93	-0.032104086
108	0x3c1ce205	0.009575372
109	0x3d94dd01	0.07268716
110	0xbe15d954	-0.14633685
111	0x3c253581	0.010083557
112	0xbd224a89	-0.039621864
113	0x3e01a27d	0.1265964
114	0xbd802c4e	-0.062584504
115	0x3e3758be	0.17904946
116	0xbe5267ec	-0.20547456
117	0x3d028ba1	0.03187144
118	0xbe6cae9f	-0.23113488
119	0xbd8c3010	-0.06845105
120	0x3cef2ba9	0.029195623
121	0x3d97ab3c	0.07405707
122	0x3d27ca3e	0.040964358
123	0x3d27c92e	0.040963344
124	0xbd60b21c	-0.05485736
125	0xbdcef924	-0.101061136
126	0x3d48a927	0.04898944
127	0xbe542a21	-0.20719196
128	0x3caf2311	0.021379026
129	0xbda6b63e	-0.08140229
130	0x3d7716e0	0.06032455
131	0x3a9c0d0f	0.0011905747
132	0xba8e61bb	-0.0010862866
133	0xbe158bcd	-0.14604111
134	0xbd8a81eb	-0.06763061
135	0xbdcc7750	-0.099836946
136	0xbc8a01fc	-0.01684665
137	0xbe464359	-0.19361629
138	0x3de5547e	0.11197756
139	0x3e0b630c	0.13612002
140	0xbdf4a2e5	-0.11945132
141	0xbdf0e084	-0.11761573
142	0xbdddc7c5	-0.10829119
143	0xbe10ba5b	-0.14133589

gru1.bias_hh_l0 f4 [144]
0	0xbd49c78c	-0.04926257
1	0xbcbb6ceb	-0.022879085
2	0xb9d52273	-0.00040652193
3	0x3dbd1cba	0.09233995
4	0x3d83f9db	0.064441405
5	0xbd0ca5ca	-0.034337796
6	0x3d8ecd28	0.06972724
7	0xbd790706	-0.060797714
8	0x3e8def4b	0.2772163
9	0x3dc8eba6	0.09810571
10	0x3d8f1ec4	0.0698829
11	0x3df3d0f7	0.11905091
12	0x3dcab74f	0.098982446
13	0x3d7b05e1	0.061284903
14	0x3e83565a	0.2565182
15	0x3dbc4121	0.0919211
16	0x3d9ad1ee	0.07559572
17	0x3e46ca87	0.19413196
18	0x3dcaa1f7	0.098941736
19	0xbcfc8060	-0.030822933
20	0x3e0ec92e	0.13943931
21	0xbcfe6348	-0.0310532
22	0x3e42167e	0.18953893
23	0xbd97ca76	-0.07411663
24	0xbd7c2135	-0.061555106
25	0x3d10f035	0.03538533
26	0xbda4abbe	-0.0804057
27	0xbdf5713d	-0.11984489
28	0x3c5fa8eb	0.013651113
29	0xbcaa3e9d	-0.02078181
30	0xbba2d8bf	-0.004969686
31	0x3e088549	0.13332094
32	0xbc4c2410	-0.01245977
33	0x3d46f5b8	0.04857418
34	0x3d0b4b7e	0.03400754
35	0xbd8d6971	-0.06904877
36	0x3e17e300	0.14832687
37	0xbccc72b8	-0.024957046
38	0xbb5d383e	-0.0033755447
39	0x3dc4cc55	0.09609286
40	0xbd006faa	-0.03135649
41	0x3d9f1a34	0.0776867
42	0xbb78971c	-0.0037931865
43	0x3dbfb47a	0.09360595
44	0xbdcf46aa	-0.101209
45	0x3d8ffc1f	0.0703051
46	0xbd395eef	-0.04525655
47	0x3e1c3296	0.15253672
48	0xbe48c830	-0.19607615
49	0xbe6d2290	-0.23157716
50	0xbe1e5e75	-0.1546572
51	0xbf38560e	-0.7200631
52	0xbe7de612	-0.24794796
53	0xbe562048	-0.20910752
54	0xbe79796f	-0.2436273
55	0x3cdf3116	0.027245086
56	0xbdf27e20	-0.11840463
57	0xbca513e4	-0.020151086
58	0xbaa4a8d2	-0.0012562519
59	0xbbbe09dd	-0.0057995156
60	0xbe34e368	-0.17664874
61	0x3cbc76e3	0.023005908
62	0xbe656f0f	-0.22405647
63	0x3c14e842	0.009088578
64	0xbd45705a	-0.04820285
65	0xbe41e35f	-0.18934391
66	0xbf445cc2	-0.7670404
67	0x3e0953dc	0.13410896
68	0xbe10549c	-0.14094776
69	0xbf11bfdd	-0.56933385
70	0xbe4ef052	-0.20208862
71	0xbe780b7b	-0.2422313
72	0xbe856dd4	-0.26060355
73	0xbe81b292	-0.2533155
74	0xbdfe0afb	-0.12404438
75	0xbd8a8dce	-0.06765328
76	0xbd7bd813	-0.06148536
77	0xbe88b82c	-0.26703012
78	0xbd41bbba	-0.04729817
79	0xbe2cae73	-0.16863422
80	0xbe34a03e	-0.17639253
81	0x3d852213	0.0650064
82	0x3b947155	0.004530112
83	0xbdfdfd80	-0.12401867
84	0x3d6fd96d	0.058556963
85	0xbeebdbee	-0.4606623
86	0xbbbd64d0	-0.00577984
87	0xbdcb1f9b	-0.09918138
88	0x3df0b26f	0.117527835
89	0xbe8eab64	-0.27865136
90	0xbe7f89ca	-0.24954906
91	0xbe97e909	-0.2966998
92	0xbe86820c	-0.26271093
93	0xbc9929a6	-0.018696617
94	0xbdd50d11	-0.10402883
95	0xbe8687d3	-0.262755
96	0xbc167ab1	-0.009184525
97	0xbde96d01	-0.11397744
98	0x3d8ff53e	0.07029198
99	0x3a98f6d9	0.0011670246
100	0x3e245dc4	0.16051394
101	0xbdca4ffa	-0.098785356
102	0xba0426c9	-0.000504118
103	0x3d00eeb4	0.031477645
104	0xbe8e15bf	-0.27750966
105	0xbd09257c	-0.033483014
106	0xbd7b543a	-0.06135962
107	0xbe88ea11	-0.26741078
108	0xbe04c29a	-0.1296486
109	0x3df5fbe2	0.120109335
110	0xbdcd7547	-0.100321345
111	0x3e320aba	0.17386904
112	0x3d7776df	0.0604161
113	0x3e523ff1	0.20532204
114	0xbda4341b	-0.08017751
115	0x3df25cad	0.11834083
116	0xbe4d0afe	-0.20023724
117	0xbd4efe67	-0.050535586
118	0xbe638281	-0.22217752
119	0xbde08970	-0.10963714
120	0x3cb57026	0.022148203
121	0x3d8b35a0	0.067973375
122	0x3df0d6af	0.11759698
123	0xbcf71a08	-0.03016378
124	0x3ddbce78	0.1073274
125	0xbdf5e317	-0.120062046
126	0xbc522c01	-0.012827874
127	0xbe3a4dd8	-0.18193758
128	0x3da60bb7	0.08107703
129	0xbb56e9f2	-0.003279325
130	0x3e09803f	0.13427828
131	0x3d09086b	0.033455294
132	0xbdc54d58	-0.09633893
133	0xbe20d27a	-0.1570529
134	0xbd9559fe	-0.07292555
135	0x3c735f19	0.014854216
136	0x3e031117	0.12799488
137	0xbe48ddab	-0.1961581
138	0x3d101b58	0.035182327
139	0x3e0dd422	0.13850453
140	0xbd84fb90	-0.06493294
141	0xbe3e1b5b	-0.18565123
142	0xbe187154	-0.14886981
143	0xbe6b53b4	-0.22981149

gru2.weight_ih_l0 f4 [48, 48]
0	0xbe303c96	-0.17210612
1	0x3d336ada	0.043803073
2	0x3d9d7cd4	0.07689825
3	0x3e265669	0.162439
4	0x3dd79c08	0.105278075
5	0xbc796e39	-0.015224033
6	0xbc8137f7	-0.015773756
7	0x3da1f5ba	0.07908197
8	0x3da6af49	0.08138902
9	0x3de52e0b	0.111904226
10	0xbc58358c	-0.01319636
11	0x3dd8a09d	0.105775096
12	0xbd89afad	-0.067229606
13	0xbcb38e07	-0.02191831
14	0x3ba8573b	0.005137352
15	0x3dad17c1	0.08451796
16	0x3e44d7d0	0.19222951
17	0xbe87dbb0	-0.26534796
18	0xbac1002c	-0.0014724783
19	0x3e2e96c4	0.170497
20	0x3c12beb6	0.008956602
21	0xbd121b90	-0.035670817
22	0x3de74a6e	0.11293493
23	0xbd9dcff4	-0.077056795
24	0x3e1185bd	0.14211173
25	0xbc4e18dd	-0.01257917
26	0xbe0d02db	-0.1377062
27	0xbd0e352c	-0.034718677
28	0xba732231	-0.0009274809
29	0xbd021ab7	-0.03176376
30	0x3d1312ba	0.03590653
31	0x3dd7eb22	0.10542895
32	0xbe3e90c2	-0.18609908
33	0x3dd5157c	0.104044884
34	0xbd12929e	-0.035784356
35	0xbcfbdcfd	-0.030745024
36	0x3d4921cd	0.0491045
37	0x3e80d462	0.25162035
38	0x3e4f1342	0.2022219
39	0xbc8abaa5	-0.016934702
40	0xbd5fae61	-0.05460966
41	0x3da25223	0.079258226
42	0xbcf6f329	-0.030145245
43	0xbe0f9a09	-0.14023603
44	0xbe1879b8	-0.14890182
45	0x3e5d8c62	0.21635583
46	0xbd309ddd	-0.0431193
47	0x3e1fef90	0.1561873
48	0xbc95adb4	-0.018271305
49	0xbe3a0bfe	-0.18168637
50	0x3d75b411	0.059986178
51	0x3d21c5cb	0.03949527
52	0x3ddea28c	0.10870847
53	0x3e604333	0.21900634
54	0xbeaa7cd7	-0.3329837
55	0xbdcf7468	-0.101296246
56	0x3d4cd100	0.050004005
57	0x3e672a3b	0.22574703
58	0xbdaf3048	-0.08554131
59	0x3e441363	0.1914802
60	0x3c762ded	0.015025598
61	0x3d919690	0.07108796
62	0x3df759f0	0.12077701
63	0x3da39831	0.079880126
64	0x3e0556c1	0.13021375
65	0xbe04908c	-0.12945765
66	0x3e0d198c	0.13779277
67	0x3dfd0069	0.12353594
68	0x3d290ec0	0.041273832
69	0xbde84f91	-0.11343301
70	0x3b7cd106	0.0038576736
71	0xbdbb22a8	-0.091374695
72	0x3e0c8253	0.1372159
73	0x3d1a9871	0.037743036
74	0x3e12f8cd	0.14352722
75	0x3deb976c	0.11503491
76	0x3e0e9e04	0.13927466
77	0x3d409417	0.04701623
78	0x3db6289b	0.08894464
79	0x3df94f3d	0.12173317
80	0xbc35d8f1	-0.011099086
81	0xbbaa91a9	-0.0052053523
82	0x3e11f8e4	0.142551
83	0x3dc2fc55	0.09520785
84	0xbbdb2d0d	-0.00668872
85	0xbe664e38	-0.22490776
86	0xbe47146a	-0.19441381
87	0x3e0ea2f4	0.13929349
88	0xbde480be	-0.11157368
89	0xbde1de71	-0.110287555
90	0xbd1d4a3c	-0.038400874
91	0x3e419329	0.18903793
92	0xbd877e79	-0.066159196
93	0xbacf21f3	-0.0015802964
94	0xbdbbedfc	-0.09176251
95	0xbd667687	-0.05626538
96	0x3cb827e8	0.022479966
97	0x3e74c520	0.23903322
98	0xbe16343e	-0.14668366
99	0x3e2bd7a2	0.16781476
100	0xbe4930de	-0.19647548
101	0xbb847c2a	-0.004043122
102	0x3de8d502	0.11368753
103	0x3bfd043c	0.007721452
104	0x3e83476c	0.25640428
105	0x3dfd9a78	0.12382978
106	0x3e67f5fd	0.22652431
107	0x3d31a0db	0.043366294
108	0x3dc9d38e	0.09854804
109	0xbe880b80	-0.26571274
110	0xbe15e3b2	-0.1463764
111	0xbd0f178d	-0.03493457
112	0xbeb20fec	-0.34777772
113	0xbe8b4652	-0.27202088
114	0x3cc2a7ed	0.023761714
115	0x3c1be284	0.009514455
116	0xbd3e339d	-0.04643594
117	0xbcbac8d6	-0.022800844
118	0x3d1ca886	0.038246654
119	0x3ecedaf6	0.4040143
120	0x3e029b35	0.1275452
121	0xbe5cc2c1	-0.21558668
122	0xbe8d54f6	-0.27603883
123	0xbd44dce6	-0.048062228
124	0xbe590eb7	-0.2119702
125	0x3e912a6d	0.2835268
126	0xbd1d1814	-0.03835304
127	0x3e6436ab	0.22286479
128	0xbddee486	-0.10883431
129	0xbd9a623b	-0.07538267
130	0xbe473feb	-0.19457977
131	0xbe189173	-0.14899234
132	0x3e9149aa	0.28376514
133	0xbcf43860	-0.029812038
134	0xbe1f7e1e	-0.15575454
135	0xbd5b55a7	-0.05354848
136	0xbecfe30a	-0.40602905
137	0xbbe5b481	-0.007010043
138	0x3e49883e	0.19680879
139	0x3c2d0d3a	0.0105622355
140	0x3cc52008	0.024063125
141	0x3e675f9b	0.22595064
142	0x3eab99d5	0.33515802
143	0x3de4f029	0.111786194
144	0x3e6ff48f	0.23433135
145	0xbe1f894e	-0.15579721
146	0x3ed2f45d	0.4120206
147	0xbe00a7c7	-0.12564002
148	0x3e466dc8	0.19377816
149	0xbeaddafb	-0.3395613
150	0x3dd7999c	0.105273455
151	0x3e41c28f	0.18921874
152	0x3d3f6ffa	0.04673765
153	0xbe0b69c7	-0.1361457
154	0xbf0b2e94	-0.5436795
155	0xbd281b22	-0.0410415
156	0xbecebf97	-0.40380546
157	0xbd43af69	-0.047774706
158	0x3e2b628a	0.16736808
159	0x3e3b134d	0.18269081
160	0x3e092e0f	0.13396476
161	0xbd61f519	-0.055165384
162	0xbf1fa84f	-0.62366194
163	0xbe6ecf4d	-0.23321266
164	0x3dc72694	0.09724155
165	0xbe00a0bb	-0.12561314
166	0x3dd8d9dd	0.10588429
167	0xbe073155	-0.13202412
168	0x3e9b5968	0.3034165
169	0x3e6ee824	0.23330742
170	0xbd8c7274	-0.06857768
171	0xbe55ae6d	-0.2086732
172	0xbeaf1a10	-0.34199572
173	0xbe10d2b0	-0.14142871
174	0x3e51304b	0.20428579
175	0xbe268dc1	-0.16265012
176	0x3d611505	0.054951686
177	0xbed13981	-0.40864184
178	0x3e7eaff6	0.24871811
179	0xbe1cd5a2	-0.1531587
180	0xbc75f231	-0.015011356
181	0xbc7e2cad	-0.015513581
182	0x3e199c03	0.1500092
183	0x3ebd0803	0.36920175
184	0x3ef9b174	0.48768198
185	0xbe851604	-0.2599336
186	0xbf0a8bed	-0.5411976
187	0xbe0732e5	-0.13203008
188	0x3c1a270b	0.009408723
189	0x3de1271a	0.10993786
190	0xbeefd339	-0.46840838
191	0xbdde9b1d	-0.10869429
192	0xbe164baf	-0.14677308
193	0xbd3e785a	-0.046501495
194	0x3de44eaf	0.1114782
195	0xbe2bd440	-0.16780186
196	0xbcea54bd	-0.02860486
197	0x3e076bf6	0.13224778
198	0xbddf24bf	-0.10895681
199	0x3ebce684	0.3689462
200	0x3c269d60	0.010169357
201	0xbe390fe7	-0.18072473
202	0xbe51e86e	-0.20498821
203	0xbe1dc5d3	-0.15407495
204	0x3e0d1714	0.13778335
205	0x3d930bf3	0.071800135
206	0xbced1eda	-0.028945375
207	0x3e00de17	0.1258472
208	0x3e2f289d	0.17105336
209	0x3d239086	0.03993275
210	0x3dba8da1	0.09109045
211	0xbd03631f	-0.03207695
212	0x3dfcd026	0.12344389
213	0xbb80a246	-0.0039255945
214	0xbe038579	-0.12843885
215	0xbea53945	-0.32270256
216	0x3ba80d32	0.005128526
217	0x3e56afc6	0.2096549
218	0x3e345f19	0.17614402
219	0x3cb43e97	0.022002501
220	0xbd2f513b	-0.042802077
221	0xbe204a84	-0.15653425
222	0x3e3351f9	0.17511739
223	0x3bdd128f	0.006746597
224	0xbd9a41ea	-0.07532103
225	0xbdac3eab	-0.084103905
226	0xbdeca825	-0.115555085
227	0xbb83a96d	-0.004018
228	0x3d835259	0.06412191
229	0x3e1676d7	0.14693771
230	0x3ef06720	0.46953678
231	0xbd64bdc6	-0.055845045
232	0x3e2564e9	0.16151775
233	0xbe0bdda8	-0.13658774
234	0x3d189067	0.037247088
235	0xbdf60cc8	-0.120141566
236	0xbe8da7f1	-0.27667192
237	0xbdb5bdbb	-0.08874079
238	0x3bbcc1b1	0.0057603945
239	0x3e00f500	0.1259346
240	0x3ce9320f	0.028466253
241	0x3d5b0440	0.05347085
242	0x3e32130b	0.17390077
243	0xbdc10e45	-0.0942655
244	0x3e0a4b50	0.13505292
245	0xbe0f4f50	-0.13995099
246	0x3e3ed01a	0.18634072
247	0xbe16023e	-0.14649293
248	0x3cb41d6c	0.021986686
249	0x3dacc2e4	0.0843561
250	0x3c9ffb83	0.01952911
251	0xbe497c9a	-0.19676438
252	0x3cf9d3a9	0.030496435
253	0x3e08dcc3	0.13365464
254	0x3db2bd0a	0.087274626
255	0xbcfc6611	-0.030810388

gru2.weight_hh_l0 f4 [48, 16]
0	0x3e0d3144	0.13788325
1	0x3e3d07db	0.18460028
2	0x3dccf8ed	0.10008416
3	0x3df4746e	0.1193627
4	0x3d1d2194	0.0383621
5	0x3d8f45ee	0.0699576
6	0xbcf172b5	-0.029473642
7	0xbc83f7ca	-0.016109366
8	0xbe51d01d	-0.20489545
9	0xbe132e25	-0.14373071
10	0xbd7c7a09	-0.06163982
11	0x3dcedae4	0.10100344
12	0x3dce5c53	0.10076203
13	0x3e654874	0.2239092
14	0x3bb6d66f	0.0055797617
15	0xbe54dbd5	-0.20786984
16	0xbe3e5f0b	-0.18590944
17	0xbd2bc22e	-0.04193323
18	0x3dd60a45	0.104511775
19	0x3cb6f323	0.022332733
20	0x3e0dc5c6	0.13844976
21	0x3dd97d1c	0.10619566
22	0xbe1fd130	-0.15607142
23	0xbe0d18e4	-0.13779026
24	0xbe057348	-0.13032258
25	0x3b5f3165	0.003405654
26	0xbdd34a20	-0.103168726
27	0xbe27fdc8	-0.16405404
28	0x3c8735b5	0.016505102
29	0x3d43dcb4	0.0478179
30	0xbce10e47	-0.027472628
31	0x3c3d027f	0.01153624
32	0x3db9cf03	0.090726875
33	0xbd9bc6dc	-0.07606289
34	0x3ec3ca1b	0.38240132
35	0x3e0d263d	0.13784118
36	0xbd53639a	-0.05160866
37	0x3e4b684e	0.19864008
38	0x3e234271	0.15943314
39	0x3d800935	0.06251756
40	0x3b0438ab	0.0020175378
41	0xbe30a163	-0.17249064
42	0xbdda89aa	-0.106707886
43	0x3a30d96e	0.0006746267
44	0xbd89e7d9	-0.067336746
45	0x3e381a09	0.17978682
46	0xbf16caff	-0.589035
47	0xbe932643	-0.2874013
48	0x3f4c41bd	0.7978781
49	0xbe3137d3	-0.17306451
50	0xbf1595ba	-0.5843159
51	0xbe45e0d4	-0.19324046
52	0x3d5385ea	0.051641382
53	0xbf387aa3	-0.7206213
54	0x3e122139	0.14270486
55	0xbdcc85ae	-0.09986435
56	0xbe034979	-0.12820996
57	0x3e2b91f7	0.167549
58	0xbd658895	-0.056038458
59	0x3cd37319	0.025811719
60	0x3d9a8d0e	0.07546435
61	0xbeaa0f55	-0.33214822
62	0x3ef06690	0.4695325
63	0x3ba1daf6	0.0049394323
64	0xbceacbc3	-0.028661614
65	0x3e0fab74	0.14030248
66	0x3d1074d1	0.035267655
67	0x3e157541	0.1459551
68	0x3ccc83a5	0.024965117
69	0xbdfd6538	-0.123728216
70	0x3b9c04a4	0.0047612954
71	0xbd6f711c	-0.05845748
72	0x3d91358f	0.070902936
73	0xbd51f668	-0.051260382
74	0xbdf2d4d0	-0.11856997
75	0xbc0b52ec	-0.008503657
76	0x3d44eda2	0.048078187
77	0x3c81511b	0.015785744
78	0xbd1e0a5d	-0.038584102
79	0xbd8d4bb1	-0.068992026
80	0xbe73d330	-0.2381103
81	0x3da22d9c	0.079188555
82	0xbc8a9833	-0.016918277
83	0xbe5741cf	-0.21021198
84	0xbdb3e12e	-0.08783184
85	0x3e1639a6	0.14670429
86	0xbe147c2f	-0.14500497
87	0x3d3b9d1a	0.04580412
88	0x3e07877c	0.13235277
89	0x3d90da00	0.0707283
90	0xbd7f9213	-0.062395167
91	0x3da4b7a2	0.08042838
92	0xbdec0ec7	-0.11526256
93	0xbe027ef7	-0.12743746
94	0x3c9d311e	0.01918846
95	0x3d4c2f7e	0.04984998
96	0x3d1a90c3	0.03773571
97	0x3db476f2	0.088117495
98	0x3cf2f95e	0.029659923
99	0xbd8798d1	-0.06620944
100	0x3dfbff9a	0.123046115
101	0x3ca47c5a	0.020078827
102	0xbd90ab54	-0.07063928
103	0xbde6a6f5	-0.11262313
104	0x3d21ab7f	0.039470192
105	0x3c60e082	0.013725402
106	0xbe0fc6d9	-0.14040698
107	0xbe2c9f96	-0.16857752
108	0xbe4f8f38	-0.20269477
109	0x3d562c6c	0.052288458
110	0x3d6a6841	0.05722833
111	0xbcd18f49	-0.025581019
112	0x3da215e0	0.079143286
113	0x3c30ebb7	0.010798386
114	0xbe193fad	-0.14965697
115	0x3cb1aed2	0.021689806
116	0x3e174ff9	0.14776601
117	0x3e143f4c	0.14477271
118	0x3dd3fc4f	0.103508584
119	0xbdc5bd9e	-0.09655307
120	0xbd9fdb87	-0.078055434
121	0xbda3cab5	-0.07997648
122	0xbdb50a91	-0.08839906
123	0xbdf1aa8a	-0.11800106
124	0x3e6286b1	0.22121693
125	0xbc74e8a6	-0.014948046
126	0x3e055f6f	0.13024686
127	0xbd35b2ec	-0.044360086
128	0xbbc32a05	-0.005955937
129	0xbe206dfb	-0.15666954
130	0x3d0d7d9a	0.03454361
131	0xbdc6e37d	-0.09711359
132	0xbe1a7c29	-0.15086426
133	0x3d262d61	0.04057062
134	0x3c833922	0.016018454
135	0x3e73754e	0.23775217
136	0x3dc96d52	0.09835304
137	0xbe72747b	-0.23677246
138	0xbaf97fd0	-0.0019035283
139	0x3d0b5aec	0.034022257
140	0xbdeb5b1a	-0.114919856
141	0x3deb1abb	0.11479708
142	0x3dee95e3	0.116496824
143	0xbe50cbc0	-0.20390224
144	0xbdb58f63	-0.088652395
145	0xbdc8c133	-0.09802475
146	0x3e1d460f	0.15358756
147	0xba7b5a74	-0.00095883687
148	0xbd4408d2	-0.047859974
149	0x3ea42a87	0.32063696
150	0x3d42acf2	0.047528215
151	0x3d8535e1	0.06504417
152	0xbd36ec21	-0.044658784
153	0xbd50a88b	-0.050941985
154	0x3d82b1b4	0.063815504
155	0x3d0601c6	0.032716535
156	0x3c42195c	0.011846866
157	0xbd52377b	-0.05132244
158	0x3c277926	0.010221755
159	0x3d302d8b	0.043012183
160	0x3d232aca	0.03983573
161	0xbca2e9e6	-0.019886922
162	0x3e4644a5	0.19362123
163	0x3d84494d	0.064592935
164	0xbdeddaa0	-0.11613965
165	0x3e7219e6	0.23642692
166	0xbdb9eff8	-0.090789735
167	0xbd3e102a	-0.046402134
168	0x3deadedb	0.114682876
169	0x3e173235	0.14765246
170	0x3c19c3d2	0.009385066
171	0xbc8b9d17	-0.01704268
172	0x3e85511d	0.26038447
173	0x3e06350e	0.13106176
174	0x3e0ba3c2	0.13636687
175	0x3e2370e7	0.15961038
176	0x3e04190e	0.12900183
177	0x3e1455b7	0.14485823
178	0xbd13ca5e	-0.036081664
179	0x3e3dc8f2	0.18533686
180	0xbdd720ef	-0.105043285
181	0xbd8576e6	-0.06516819
182	0xbdaa9986	-0.083300635
183	0x3d7a4cbf	0.061108347
184	0x3e61bdba	0.22045031
185	0x3dda81b9	0.10669274
186	0xbc95dc1d	-0.018293435
187	0x3d50749e	0.050892465
188	0x3d08cece	0.03340035
189	0xbe30186e	-0.17196819
190	0x398feccd	0.00027451516
191	0x3dafe398	0.08588332
192	0xbc860b4d	-0.01636281
193	0xbdc4b03b	-0.09603926
194	0x3dec7ac4	0.11546853
195	0xbdbdb616	-0.09263246
196	0x3d9298d6	0.071580574
197	0xbd7131a3	-0.058885228
198	0x3dcbecd6	0.09957282
199	0x3e26eaa6	0.16300449
200	0x3da55577	0.08072942
201	0xbdd2824e	-0.1027876
202	0xbc1b6156	-0.009483656
203	0x3d12626f	0.035738405
204	0xbe57e25a	-0.2108244
205	0x3d5c79e4	0.05382718
206	0xbe261679	-0.1621951
207	0xbe5aa8f0	-0.21353507
208	0x3c924bfa	0.017858494
209	0xbd9f5f17	-0.07781809
210	0xbebeb565	-0.37247768
211	0xbc11ee82	-0.008906962
212	0x3ef99292	0.48744637
213	0xbccc1ed1	-0.024917038
214	0x3dee4f7a	0.11636253
215	0xbe2e3a39	-0.17014398
216	0xbd07b62c	-0.033132717
217	0x3e0d9328	0.13825667
218	0x3dcf76cb	0.1013008
219	0x3cfdf7c7	0.031001939
220	0xbd9b3d78	-0.075800836
221	0xbe2b0a26	-0.1670309
222	0x3e6fe168	0.2342583
223	0x3d197aae	0.037470512
224	0xbd247aa9	-0.04015604
225	0x3e102c56	0.14079413
226	0x3cb92a75	0.022603253
227	0xbdc41ffc	-0.09576413
228	0xbe554f61	-0.20831062
229	0xbcc2ced8	-0.023780271
230	0xbd8fbc33	-0.07018318
231	0x3d7247a0	0.05915034
232	0xbe3f0f99	-0.18658294
233	0xbe52a2ba	-0.20569888
234	0xbc7eee65	-0.015559767
235	0xbd2301b6	-0.039796554
236	0xbe8814ab	-0.26578268
237	0x3e037f9f	0.12841652
238	0xbd775893	-0.060387205
239	0xbd67f6a2	-0.05663169
240	0x3e33c1df	0.17554425
241	0x3d956818	0.07295245
242	0xbd9aa0b7	-0.07550185
243	0xbd39d666	-0.045370482
244	0x3e57ec7b	0.21086304
245	0xbe08a102	-0.1334267
246	0x3ddedc4a	0.108818606
247	0x3d2a7070	0.041611135
248	0xbc92b3d6	-0.017908018
249	0xbd3e1721	-0.046408776
250	0x3d3e0d14	0.04639919
251	0xbe6b5d8f	-0.22984909
252	0x3dbe0672	0.09278573
253	0xbe53c10e	-0.20679113
254	0xbe588986	-0.21146211
255	0xbe401c77	-0.18760858

gru2.bias_ih_l0 f4 [48]
0	0xbe49e9fe	-0.19718167
1	0x3dcfd13c	0.1014733
2	0xbb43c794	-0.0029873597
3	0x3d82569f	0.06364178
4	0xbc63f229	-0.013912716
5	0x3c585765	0.01320443
6	0x3e28b7b4	0.16476327
7	0xbd37f111	-0.044907633
8	0x3e19c9c0	0.15018368
9	0xbd8248f8	-0.06361574
10	0xbdab65b2	-0.08369006
11	0xbe4a6ace	-0.19767305
12	0xbe2fefcd	-0.1718132
13	0xbd5bcbad	-0.053661037
14	0x3d3618ef	0.044457372
15	0xbdaa5ca7	-0.08318453
16	0xbe29b6a4	-0.16573578
17	0xbf01132f	-0.50419897
18	0xbdc69ad5	-0.096975006
19	0xbdfaeb20	-0.12251878
20	0xbdacc832	-0.08436622
21	0xbcecf67d	-0.028926129
22	0xbe8a545d	-0.2701749
23	0xbf0220c9	-0.50831276
24	0xbde89102	-0.11355783
25	0xbe857cf2	-0.26071888
26	0xbd6e8162	-0.058228858
27	0xbe1dafa7	-0.15399037
28	0xbe88754c	-0.2665199
29	0xbe9e4f81	-0.30920032
30	0xbe21a0dd	-0.1578402
31	0xbee9975f	-0.456233
32	0x3b66c42a	0.0035212138
33	0xbde80821	-0.113296755
34	0xbe04ab01	-0.12955858
35	0xbe812293	-0.2522169
36	0x3d9e288f	0.0772258
37	0x3d5336b7	0.051565852
38	0xbe00d387	-0.12580691
39	0x3d765f3c	0.060149416
40	0x3e40a893	0.18814306
41	0xbd3aca9c	-0.04560338
42	0x3ca35c0d	0.019941354
43	0x3e268383	0.16261105
44	0xbdcddd66	-0.10051994
45	0x3d95ebc8	0.07320362
46	0x3e378375	0.1792124
47	0xbcf2da6f	-0.029645173

gru2.bias_hh_l0 f4 [48]
0	0x3d3ba03e	0.045807116
1	0x3d84fd0b	0.064935766
2	0xbe2d36d5	-0.16915448
3	0x3e13c7db	0.14431708
4	0x3cf88898	0.03033857
5	0x3e48099d	0.19534917
6	0xbdd1bf14	-0.102415234
7	0x3e493558	0.19649255
8	0xbd390ea3	-0.045179974
9	0xbc5bb117	-0.013408921
10	0xbdc1e567	-0.09467583
11	0xbdc0d67e	-0.09415911
12	0x3dc68228	0.09692794
13	0xbd695d35	-0.056973655
14	0xbe1110dd	-0.14166589
15	0xbd5c3f3b	-0.05377124
16	0xbe290e77	-0.16509424
17	0xbeb4f58a	-0.3534358
18	0xbeba85f5	-0.36430326
19	0xbc39e884	-0.01134694
20	0xbe8426ef	-0.25810954
21	0xbcdeabef	-0.027181594
22	0xbe97dbad	-0.29659787
23	0xbeb880f1	-0.36035874
24	0xbe543c59	-0.20726146
25	0xbea2c4ad	-0.31790677
26	0xbe4ab207	-0.19794475
27	0x3d6c4bbb	0.05768941
28	0xbe7c034b	-0.24610631
29	0xbf055849	-0.5208784
30	0xbe45e538	-0.19325721
31	0xbebe0882	-0.37115866
32	0xbde219ac	-0.11040053
33	0x3e383c78	0.17991817
34	0xbd52b1f2	-0.051439233
35	0xbdaf2252	-0.08551468
36	0x3df0d61b	0.117595874
37	0xbdac8b18	-0.084249675
38	0xbe4e0fcd	-0.20123215
39	0xbceb332f	-0.02871093
40	0xbd893d75	-0.06701175
41	0x3dba500a	0.090972975
42	0xbcfbb0a1	-0.030723872
43	0xbc067793	-0.00820722
44	0x3d7cb113	0.06169231
45	0x3e01ba1d	0.12668653
46	0xbcf4b628	-0.029872015
47	0xbcc4f0f5	-0.024040679

gru3.weight_ih_l0 f4 [18, 16]
0	0xbde82eb3	-0.11337032
1	0x3cac8c1c	0.021062903
2	0xbda86b4b	-0.082235895
3	0x3e2c0ef9	0.16802587
4	0x3d7a9740	0.0611794
5	0xbe6fc0da	-0.23413411
6	0x3db1cd0c	0.08681688
7	0xbc412820	-0.011789352
8	0x3e4b813d	0.19873519
9	0x3d8a76d6	0.067609474
10	0x3dd9e00a	0.10638435
11	0x3e15da6d	0.14634104
12	0xbe26d39b	-0.16291659
13	0xbeb97589	-0.36222485
14	0x3ebd7b44	0.37008107
15	0xbe082f1d	-0.13299222
16	0x3d554a04	0.05207254
17	0xbe7d285e	-0.2472243
18	0x3e8113e3	0.25210485
19	0x3ca9d38f	0.020730762
20	0x3df3b5cc	0.118999094
21	0xbea08433	-0.3135086
22	0xbe8bc400	-0.27297974
23	0x3e84b90a	0.25922424
24	0xbe658bdb	-0.22416632
25	0x3e49d925	0.1971174
26	0x3dff0462	0.12452008
27	0x3eaa7b58	0.3329723
28	0x3e6b315d	0.2296805
29	0x3db124e3	0.08649614
30	0xba6a896f	-0.0008946871
31	0xbe2c1754	-0.16805774
32	0x3eba1dac	0.36350763
33	0xbc533248	-0.012890406
34	0x3e9ace19	0.30235365
35	0x3eb828b6	0.3596856
36	0xbde05e0a	-0.109554365
37	0x3d9a478e	0.07533179
38	0x3f04d4de	0.5188731
39	0x3ed0cc46	0.40780848
40	0xbe56fa95	-0.20994027
41	0x3b91dc2a	0.0044512944
42	0x3dc23021	0.09481836
43	0xbef146c7	-0.4712431
44	0x3c4c49a8	0.012468733
45	0x3dc24937	0.09486621
46	0xbd1e192e	-0.038598232
47	0x3d7a5084	0.061111942
48	0xbd719b06	-0.058985732
49	0x3ddc3be2	0.10753609
50	0xbdd6a287	-0.104802184
51	0xbd9f2e40	-0.07772493
52	0x3c334656	0.010942062
53	0xbce54b5d	-0.027990038
54	0x3dd78b2e	0.10524593
55	0x3d8bfc2b	0.068352066
56	0xbe21ef11	-0.15813853
57	0xbeac1a55	-0.3361384
58	0xbe2b4183	-0.1672421
59	0xbdc8ecf8	-0.09810823
60	0xbe7dd2bb	-0.24787419
61	0xbd4d03c4	-0.05005242
62	0xbdec8690	-0.11549103
63	0xbe642e57	-0.22283302
64	0xbe908376	-0.28225297
65	0xbc6e8ceb	-0.014559965
66	0x3de445a5	0.11146096
67	0x3dbcb4c7	0.09214168
68	0xbcb757fb	-0.02238082
69	0xbd9ef003	-0.07760622
70	0x3e90ec44	0.28305256
71	0x3de00314	0.10938087
72	0xbe322f57	-0.17400871
73	0xbeb5fbbd	-0.35543624
74	0xbe0a14b6	-0.13484463
75	0x3d5efdef	0.05444139
76	0xbf29afe0	-0.6628399
77	0x3c705870	0.014669523
78	0x3d054a6d	0.03254168
79	0xbe588c7f	-0.21147345
80	0x3e818409	0.25296047
81	0x3eb91c58	0.36154437
82	0x3ea60bef	0.3243098
83	0xbd8cb9b3	-0.06871357
84	0xbdd9adb2	-0.10628833
85	0x3e94dadf	0.29073235
86	0x3e3e3a1b	0.18576853
87	0xbe875cce	-0.26437992
88	0x3eaea91a	0.3411339
89	0xbe3b44d2	-0.18287972
90	0xbd9016f1	-0.07035626
91	0x3d96ccbc	0.07363269
92	0x3dbec6b3	0.093152426
93	0x3f02c2f4	0.51078725
94	0xbd87e67f	-0.066357605
95	0x3e16cb9f	0.14726113
96	0x3e96b759	0.29436758
97	0xbdfa8b6c	-0.12233624
98	0xbe176ba9	-0.14787163
99	0x3e854576	0.26029557
100	0x3f261a09	0.64883476
101	0xbf07a069	-0.5297914
102	0x3ec3f4bc	0.38272655
103	0xbe519404	-0.2046662
104	0xbee1c04d	-0.44092026
105	0xbf04a8af	-0.5181989
106	0xbe2a880b	-0.16653459
107	0x3d31a81d	0.043373216
108	0x3e31316f	0.17304014
109	0xbebedba8	-0.3727696
110	0x3f4f7582	0.8103868
111	0x3db14064	0.0865486
112	0xbc40c664	-0.01176605
113	0xbe955a1b	-0.29170308
114	0x3dca68d6	0.09883277
115	0x3f3fc5de	0.74911296
116	0xbdc11cfd	-0.09429357
117	0x3e64171d	0.22274442
118	0x3f5b48cb	0.8565795
119	0x3f033e3b	0.5126683
120	0xbefcdc4a	-0.49386817
121	0xbe59aeae	-0.21258041
122	0x3e2122ee	0.15735981
123	0xbf78a689	-0.9712911
124	0x3d40eb26	0.047099255
125	0xbcd4445b	-0.0259115
126	0xbf2bac07	-0.6705937
127	0xbf06fdb4	-0.5273087
128	0x3dfab3ed	0.12241349
129	0xbdcdee42	-0.1005521
130	0xbe0b796b	-0.13620536
131	0x3f473941	0.7782174
132	0xbe4234ca	-0.1896545
133	0x3deb5b27	0.11491995
134	0x3df957d9	0.12174959
135	0x3e4d6a95	0.20060189
136	0xbf253570	-0.64534664
137	0x3f1198ca	0.5687376
138	0xbf53ab52	-0.8268329
139	0xbef51bf7	-0.47872898
140	0x3e5fc0a0	0.21850824
141	0x3e19ef04	0.15032583
142	0xbedb74f2	-0.4286266
143	0xbedbc7fa	-0.42926008
144	0x3e5c74ac	0.21528882
145	0xbed336f2	-0.41252857
146	0x3ea85fcd	0.3288559
147	0x3f579ef1	0.842269
148	0xbc19ea86	-0.009394294
149	0x3e56f490	0.2099173
150	0x3eb66638	0.35624862
151	0x3ed13c16	0.40866154
152	0xbf8780d7	-1.0586194
153	0x3b18c81a	0.002331263
154	0xbd27cf51	-0.040969197
155	0xbf6d4234	-0.9267914
156	0x3e07fda7	0.13280354
157	0x3ed287c3	0.41119203
158	0xbf3a3804	-0.72741723
159	0xbf2d2233	-0.6763031
160	0x3e08905e	0.13336322
161	0xbefbe394	-0.49197066
162	0xbde85ba6	-0.113456056
163	0x3f9748b9	1.1819068
164	0xbe2b2e77	-0.16716944
165	0x3dd5324d	0.10409985
166	0x3f7671ee	0.9626759
167	0x3f2c73ba	0.67364085
168	0xbf5ceb45	-0.8629649
169	0xbf0925e0	-0.5357342
170	0x3eea7120	0.45789433
171	0xbf3b7293	-0.732217
172	0x3f1b7716	0.60728586
173	0x3ed76a42	0.42073256
174	0xbf84e940	-1.0383682
175	0xbf11f401	-0.57012945
176	0x3ee45bd6	0.44601315
177	0xbf26fc6e	-0.6522893
178	0xbd0cb7a0	-0.034354806
179	0x3f10042a	0.56256354
180	0x3cf3e321	0.02977139
181	0xbd3f2524	-0.04666628
182	0x3f116dd1	0.5680819
183	0x3f2ce05b	0.6752984
184	0xbeb2fc6f	-0.34958217
185	0xbf9be9a2	-1.2180674
186	0x3f341112	0.7033855
187	0xbefa232f	-0.48854968
188	0xbd46aa11	-0.04850203
189	0xbd0681ad	-0.032838512
190	0xbeab4e75	-0.33458295
191	0xbe9626f3	-0.2932659
192	0xbea2fb2a	-0.31832248
193	0x3e8312ec	0.25600374
194	0x3ec034c4	0.37540257
195	0x3ea0dadf	0.31416985
196	0xbdf96e40	-0.12179232
197	0x3e5a1afd	0.21299358
198	0xbd157fcc	-0.03649883
199	0x3d8c78d4	0.06858984
200	0xbde4b089	-0.11166484
201	0xbd032d0a	-0.032025374
202	0xbd6810f4	-0.056656793
203	0xbe67a79e	-0.22622535
204	0x3e001bb3	0.12510566
205	0xbd82ec5b	-0.063927375
206	0xbe8aee12	-0.27134758
207	0xbe8de5e6	-0.2771446
208	0x3e9d2c46	0.3069784
209	0x3e4d53e3	0.20051531
210	0xbe589594	-0.2115081
211	0x3daa327a	0.08310409
212	0x3df3e683	0.11909201
213	0xbea16ec8	-0.31529832
214	0x3dc93ed3	0.09826436
215	0x3e4fe33f	0.20301531
216	0xbe08350a	-0.13301483
217	0xbe144af5	-0.14481719
218	0x3e6df441	0.23237707
219	0xbecd25e9	-0.40067986
220	0xbd839e0c	-0.064266294
221	0x3e3c3ade	0.18381831
222	0xbe1b9814	-0.15194732
223	0x3e7fb405	0.24971016
224	0x3e7f1e86	0.24913988
225	0xbec848de	-0.39118093
226	0xbe37aaff	-0.17936324
227	0x3e953571	0.29142335
228	0x3e3fe5da	0.18740025
229	0xbdcde153	-0.10052743
230	0x3eab59bc	0.334669
231	0x3d3161fc	0.043306336
232	0xbdf075e7	-0.11741238
233	0xbe81d308	-0.25356317
234	0x3dcd4042	0.10022022
235	0xbe6df0a7	-0.23236333
236	0x3e693cdb	0.22777121
237	0xbdb0b9ed	-0.086292125
238	0xbd3232f2	-0.043505616
239	0x3dad1494	0.084511906
240	0xbe98ad01	-0.29819492
241	0xbcccf541	-0.02501929
242	0x3e83891b	0.2569054
243	0xbea843cd	-0.32864228
244	0x3dcbb3d7	0.09946411
245	0xbe255643	-0.16146187
246	0x3e29370d	0.16524906
247	0x3e95cb81	0.29256824
248	0x3ebee904	0.37287152
249	0xbeb22452	-0.34793335
250	0x3e1776b7	0.1479138
251	0xbd53c18a	-0.051698245
252	0xbf050d0d	-0.5197304
253	0xbe929375	-0.28628126
254	0xbe04220b	-0.12903611
255	0xbeac1747	-0.3361151

gru3.weight_hh_l0 f4 [18, 6]
0	0xbecd858e	-0.40140957
1	0x3da19af5	0.07890884
2	0x3e5b0d68	0.21391833
3	0x3d07f3a2	0.03319133
4	0xbef1a7ec	-0.47198427
5	0xbe32ca9f	-0.17460106
6	0x3e247955	0.1606191
7	0x3e4ad182	0.19806483
8	0x3deaf6f2	0.11472882
9	0xbe6abe94	-0.22924262
10	0x3d8a4e83	0.06753256
11	0x3e6d99b1	0.2320316
12	0xbd852a43	-0.065022014
13	0x3ee4729e	0.44618696
14	0x3e974a6d	0.2954897
15	0xbe9783ba	-0.29592687
16	0x3d8aa311	0.06769384
17	0xbc159246	-0.009129113
18	0x3deaf80f	0.11473095
19	0xbcfce3d8	-0.030870363
20	0xbd642df2	-0.05570788
21	0xbe3c8fa4	-0.1841417
22	0xbea2de4e	-0.3181023
23	0x3b19bd53	0.0023458793
24	0xbd79a9fe	-0.060953133
25	0xbd8615ca	-0.06547125
26	0x3d045748	0.0323098
27	0x3e4d9f32	0.2008026
28	0xbd87092c	-0.06593546
29	0x3ced9910	0.02900365
30	0x3e0c3241	0.13691045
31	0xbe1bb059	-0.1520399
32	0x3e1fbdfe	0.1559982
33	0xbe5f60b4	-0.21814233
34	0x3dad6ab5	0.084676184
35	0x3c68cdfe	0.014209269
36	0xbe190758	-0.14944208
37	0x3c6efe69	0.014587023
38	0x3eb5c3b0	0.3550086
39	0xbecba70d	-0.39775887
40	0x3d3c9121	0.046036843
41	0xbd08f10f	-0.033433016
42	0x3f5b3272	0.8562385
43	0x3f29c1b8	0.66311216
44	0x3e9981fb	0.2998198
45	0xbd741f38	-0.059600085
46	0x3f02e35b	0.51128167
47	0x3f4f51bb	0.80984086
48	0x3e6dc054	0.23217899
49	0x3e3078f9	0.17233647
50	0xbe03a228	-0.12854826
51	0xbde0b076	-0.10971157
52	0x3f4668bc	0.7750356
53	0x3f90090c	1.1252761
54	0x3effea4e	0.49983448
55	0x3f0f0963	0.558737
56	0x3d1e0a10	0.038583815
57	0xbf2277c6	-0.6346401
58	0x3f2b861c	0.6700151
59	0x3f82f303	1.0230411
60	0x3f4fe660	0.812109
61	0x3e9ee572	0.31034428
62	0x3ea07432	0.3133865
63	0xbe8a6b7c	-0.2703513
64	0x3f13c50b	0.5772254
65	0x3f9d4eb3	1.2289642
66	0x3eaf7c88	0.34274697
67	0x3f78545b	0.97003716
68	0x3f044869	0.5167299
69	0xbd1b20f9	-0.037873242
70	0x3e9e7056	0.3094508
71	0x3f0f3b56	0.55949914
72	0xbcb46df1	-0.02202508
73	0xbe140ab0	-0.14457202
74	0xbe5c63e2	-0.21522477
75	0xbe407f84	-0.18798643
76	0x3e83d3aa	0.25747424
77	0x3e602c8b	0.21891992
78	0x3dc02c0f	0.093834035
79	0x3e86662f	0.26249835
80	0xbe4bf821	-0.19918872
81	0x3d640f98	0.055678934
82	0x3ebba37c	0.36648166
83	0x3b76e8cf	0.0037675386
84	0x3d8f6c02	0.07003023
85	0xbad7b0fa	-0.0016455941
86	0xbcbf557b	-0.02335619
87	0x3e83812a	0.25684482
88	0xbeae9b9d	-0.341031
89	0x3dc280a1	0.0949719
90	0x3e3a9d55	0.1822408
91	0x3de6675b	0.11250182
92	0xbe90046d	-0.28128377
93	0x3df5016e	0.11963163
94	0x3ce33415	0.027734796
95	0xbe6d5eb2	-0.23180655
96	0x3d54d1cc	0.05195789
97	0xbe4741f6	-0.19458756
98	0x3d97fd82	0.074214
99	0x3d1fb3aa	0.0389897
100	0xbddfefb0	-0.10934389
101	0xbe9b86d7	-0.30376312
102	0x3bdb4ed7	0.006692748
103	0x3dd68cb4	0.10476056
104	0x3d9a1dc5	0.07525209
105	0xbe67eb00	-0.22648239
106	0xbe8c51f0	-0.27406263
107	0x3e739106	0.23785791

gru3.bias_ih_l0 f4 [18]
0	0x3e8f7060	0.28015423
1	0x3e83246e	0.2561373
2	0xbead1d3a	-0.3381136
3	0x3e8d5920	0.2760706
4	0xbe70a9cb	-0.23502271
5	0xbdd17789	-0.10227878
6	0xbe52eefc	-0.20598978
7	0xbf921087	-1.1411294
8	0xbef39ed6	-0.4758212
9	0xbf3def5d	-0.74193364
10	0xbf9e214f	-1.2353915
11	0xbed6f18d	-0.41981164
12	0x3e59c02b	0.21264713
13	0x3ba94df1	0.005166762
14	0x3e1a1012	0.15045193
15	0xbd96179a	-0.073287204
16	0x3d384814	0.044990614
17	0xbc00a2c2	-0.0078513045

gru3.bias_hh_l0 f4 [18]
0	0xbdd9ab15	-0.106283344
1	0xbe239195	-0.15973504
2	0x3d3255f9	0.04353902
3	0xbe1ebe12	-0.15502194
4	0x3c93a6c4	0.018023856
5	0xbe05db58	-0.13071954
6	0xbc406707	-0.011743314
7	0xbf559e85	-0.83445007
8	0xbf0bdcaf	-0.5463361
9	0xbf752e69	-0.9577394
10	0xbf8f6681	-1.1203157
11	0xbeed951e	-0.4640283
12	0xbdfa5230	-0.12222707
13	0xbe91bff7	-0.2846677
14	0x3e7acef8	0.24493015
15	0x3e3edcd4	0.18638927
16	0xbe1617db	-0.14657538
17	0xbeb4335d	-0.35195437

fc1.weight f4 [16, 6]
0	0x3e369ec3	0.17834
1	0xbeea6904	-0.45783246
2	0xbedfe6e9	-0.43730858
3	0xbcbe62ac	-0.02324041
4	0x3ea8c75b	0.32964596
5	0xbe9c7230	-0.30555868
6	0xbe81be54	-0.2534052
7	0x3e1a5b6b	0.15073936
8	0x3ebe350c	0.37149847
9	0x3e9321cb	0.2873672
10	0xbe7f0c6d	-0.24907084
11	0xbe8786ad	-0.26469937
12	0xbea2799f	-0.31733415
13	0x3e503137	0.20331274
14	0x3e6f2fd5	0.2335809
15	0x3e9cf71d	0.30657282
16	0xbed54e9f	-0.41661546
17	0x3d6d1a5a	0.05788646
18	0xbdfeac4b	-0.12435206
19	0xbe57a770	-0.21059966
20	0xbec6a999	-0.38801268
21	0x3f11113f	0.5666694
22	0xbe950c75	-0.29111066
23	0xbf0feaa4	-0.5621741
24	0x3d5be2cf	0.0536831
25	0xbebc41b1	-0.3676887
26	0xbe582b13	-0.21110182
27	0x3eab9172	0.33509403
28	0x3e96488f	0.29352233
29	0xbeb118ef	-0.34589335
30	0x3df6c2fd	0.1204891
31	0x3f4c97b2	0.7991897
32	0xbee5f2e3	-0.4491187
33	0xbe751c51	-0.23936583
34	0xbe366654	-0.17812473
35	0xbeaef576	-0.34171647
36	0xbeaaed2d	-0.33384076
37	0xbd075e17	-0.033048715
38	0x3e7e57b4	0.24838144
39	0x3ea85ba2	0.3288241
40	0xbe750ab7	-0.23929869
41	0x3d8e6c6c	0.069542736
42	0xbf3b0361	-0.7305203
43	0x3ecfd53d	0.40592375
44	0xbf5d4491	-0.8643275
45	0x3e669410	0.22517419
46	0x3f357a62	0.70889866
47	0xbeafd444	-0.34341633
48	0x3f44b55f	0.7683925
49	0xbe87bff3	-0.26513633
50	0x3cf98386	0.030458223
51	0x3e3a9805	0.18222053
52	0x3e86f597	0.26359245
53	0xbe41ba87	-0.18918811
54	0xbe45bcf3	-0.1931036
55	0x3e5f8bae	0.21830627
56	0x3eb14ada	0.3462742
57	0x3d9d30e1	0.076753385
58	0xbecf8137	-0.4052827
59	0xbea4a085	-0.32153717
60	0xbec74f35	-0.38927618
61	0xbe34f53d	-0.17671676
62	0x3e72cbf0	0.23710608
63	0x3ead8a9b	0.3389481
64	0xbf1ba640	-0.6080055
65	0x3e5504aa	0.2080256
66	0xbee89416	-0.4542548
67	0x3e6df931	0.2323959
68	0x3c3714af	0.011174365
69	0xbea58921	-0.32331184
70	0x3e2f38ec	0.17111558
71	0xbf0c6227	-0.5483727
72	0x3e5f8fc6	0.21832189
73	0xbec069d2	-0.37580734
74	0xbe097b26	-0.13425884
75	0xbe2328bd	-0.15933509
76	0x3ea66e62	0.3250609
77	0xbd9a4f85	-0.075346984
78	0xbde95bad	-0.11394439
79	0xbe1b5623	-0.15169577
80	0xbcd23e3b	-0.02566444
81	0x3eee3aeb	0.46529326
82	0x3f0fc2f4	0.5615685
83	0x3d4a8437	0.049442496
84	0xbe65cdaf	-0.22441743
85	0xbee990ff	-0.45618436
86	0xbe6b96b1	-0.23006703
87	0x3d6fb7cd	0.058524895
88	0xbf01826c	-0.50589633
89	0x3e396580	0.18105125
90	0xbecec4e6	-0.40384597
91	0xbe5d9cd9	-0.21641864
92	0x3de20a05	0.11037067
93	0x3d5dc1aa	0.05413977
94	0xbf0b7437	-0.54474205
95	0xbedc8869	-0.43072823
