healthy state/GRU_autoencoder.pth (torch, 63030 bytes, 18 tensors)

gru1.weight_ih_l0 f4 [144, 18]
0.2789394 -0.0981928 0.11778714 -0.42866215 -0.07491595 0.03382877 -0.014002821 -0.10270936
-0.33864236 -0.42731532 -0.3598561 -0.24659199 -0.14221461 -0.063049436 -0.2791952 0.05417868
0.00045451403 0.026767386 -0.17068896 -0.14545627 -0.084971786 0.07475726 0.040348552 0.029265331
0.04500547 0.15856573 0.12978299 0.04104848 0.14448936 0.02928767 0.15598373 0.16190372
0.14570902 -0.007142939 0.14876181 0.13773896 -0.59589463 0.9395178 -0.35363424 1.5199082
0.5893228 0.036074582 -0.15955037 -0.05910616 0.94914484 2.0032144 1.0357008 0.62453514
0.3157091 0.28182507 0.8634879 -0.2901517 0.06080647 0.18777195 -0.070175 -0.045504533
0.13088652 0.054155 -0.04099682 -0.0009149982 0.007889447 0.010751624 -0.024226662 -0.00079100445
-0.050628684 -0.054999646 -0.006985839 -0.013012278 -0.10823514 0.17329401 0.12412666 0.006797623
0.04324153 0.1646349 -0.14868478 -0.015522946 0.021667177 -0.09808114 -0.028077932 -0.103499345
-0.015372311 -0.06227143 -0.048220623 -0.00037575813 -0.020166019 -0.11970391 -0.02747999 -0.11731086
-0.090514414 -0.043059837 -0.02326555 -0.26730695 -0.110502176 -0.0782703 -0.09823257 -0.07865891
-0.05634881 -0.056364637 0.021164538 0.0009929196 0.09226614 -0.057813194 0.062010914 -0.07301656
0.11732413 -0.02321243 0.022198638 -0.07474883 -0.08995826 -0.1880712 -0.2598856 -0.054669596
-0.1325026 -0.159914 -0.11733483 -0.008741658 0.04998125 0.06270192 0.037188247 0.031870127
-0.08639791 -0.12004052 0.108026974 -0.16563053 -0.06425212 -0.08244564 -0.035030343 0.059374936
-0.12239127 0.1043205 0.1111494 0.0054243407 -0.07462183 -0.11739989 0.0055163023 0.107758574
0.0011895832 -0.07042468 -0.020668283 0.03463675 -0.005840351 -0.069331855 -0.10768177 0.02166758
-0.20249455 -0.24072084 -0.26248693 0.20607145 -0.044445604 0.011338073 -0.108283095 -0.03418224
0.14422837 0.18985876 0.05479309 0.019676866 -0.06056028 0.04254291 0.16489331 -0.3268883
-0.01836321 0.010189011 -0.07804847 0.11625657 -0.15467657 -0.036206435 -0.06230778 -0.015362154
-0.0048713116 -0.07365848 -0.09705969 -0.05452529 -0.022201443 0.02772152 -0.060322177 -0.052931566
-0.038130112 -0.009449219 -0.1183437 -0.026446939 0.13673764 0.07797126 -0.10685004 -0.0017343764
0.004130398 -0.12787819 0.04109076 0.018309977 -0.012881293 0.0012650156 -0.03963405 -0.15351722
-0.058505993 -0.051735293 -0.0055586738 -0.039330497 -0.004329768 -0.056963142 -0.07884509 -0.14393865
-0.2897688 0.023899658 -0.11523297 -0.30060855 -0.47139508 -0.24884288 0.0049517336 0.004073591
0.06129106 0.048868667 -0.072893135 -0.15643844 0.014182725 -0.24677573 -0.44096404 -0.20170179
0.11597781 -0.023442665 -0.10583141 -0.1442597 -0.3231197 -0.24865445 -0.23381722 -0.1984049
-0.18736124 -0.111323714 -0.062819906 -0.10307873 -0.2293865 -0.1429942 -0.09038289 -0.18995185
-0.19701107 -0.17190678 -0.12799694 -0.10158526 -0.08488267 0.08360267 0.115699716 -0.07266847
-0.1741555 -0.14522304 -0.0037297148 0.12420322 0.07547921 0.07500779 -0.031001579 0.016015321
-0.03156248 0.031836744 0.053429324 -0.028328225 -0.06949467 -0.02768442 -0.097111925 0.018552922
00000000: 25d1 8e3e 4f19 c9bd 623a f13d 9b79 dbbe
00000010: 896d 99bd 0990 0a3d 176c 65bc 4959 d2bd
00000020: 8862 adbe 13c9 dabe 0f3f b8be 9c82 7cbe
00000030: b5a0 11be 1020 81bd acf2 8ebe 77ea 5d3d
00000040: d74b ee39 4747 db3c 16c9 2ebe 7df2 14be
00000050: b005 aebd 561a 993d 8644 253d d9bd ef3c
00000060: a857 383d 0e5f 223e d5e5 043e 7322 283d
00000070: 05f5 133e b2ec ef3c 33ba 1f3e 17ca 253e
00000080: bf34 153e 510f eabb 0455 183e 710b 0d3e
00000090: 8d8c 18bf 3d84 703f 8c0f b5be 5a8c c23f
000000a0: dcdd 163f f1c2 133d 2c61 23be 4d19 72bd
000000b0: 28fb 723f aa34 0040 d891 843f 89e1 1f3f
000000c0: a0a4 a13e 604b 903e 8b0d 5d3f c38e 94be
000000d0: 3510 793d 4a47 403e e9b7 8fbd f662 3abd
000000e0: 1e07 063e a2d1 5d3d 48ec 27bd 7ddc 6fba
000000f0: bd42 013c 9427 303c fe76 c6bc 695b 4fba
00000100: 0660 4fbd 4f47 61bd 77e9 e4bb 7331 55bc
00000110: 63aa ddbd fc73 313e 1e36 fe3d 98be de3b
00000120: 081e 313d 0d96 283e d340 18be f453 7ebc
00000130: 5d7f b13c c4de c8bd b103 e6bc 77f7 d3bd
00000140: 25dc 7bbc 5410 7fbd fd82 45bd 6701 c5b9
00000150: 3533 a5bc 5327 f5bd b71d e1bc ad40 f0bd
00000160: 9f5f b9bd 835f 30bd 6597 bebc 75dc 88be
00000170: f74e e2bd 2e4c a0bd 282e c9bd ec17 a1bd
00000180: 03ce 66bd 9bde 66bd 4161 ad3c da24 823a
00000190: 08f6 bc3d 87cd 6cbd 28ff 7d3d b589 95bd
000001a0: a247 f03d fe27 bebc ebd9 b53c ea15 99bd
000001b0: 093c b8bd bd95 40be ba0f 85be 3aed 5fbd
000001c0: c3ae 07be 7fc0 23be 3e4d f0bd 2c39 0fbc
000001d0: 24b9 4c3d dd69 803d b452 183d 408a 023d
000001e0: 63f1 b0bd ced7 f5bd 3f3d dd3d 0d9b 29be
000001f0: 9e96 83bd 42d9 a8bd fa7b 0fbd 2233 733d
00000200: 46a8 fabd fca5 d53d 4ca2 e33d abbe b13b
00000210: 54d3 98bd 5b6f f0bd 19c2 b43b 87b0 dc3d
00000220: caeb 9b3a d13a 90bd 8850 a9bc 44df 0d3d
00000230: 6a60 bfbb dcfd 8dbd 4388 dcbd 3580 b13c
00000240: bb5a 4fbe 867f 76be b064 86be 6504 533e
00000250: 980c 36bd 53c3 393c 87c3 ddbd ad02 0cbd
00000260: 9ab0 133e 566a 423e b86e 603d 6131 a13c
00000270: 0e0e 78bd 7941 2e3d cbd9 283e e75d a7be
00000280: 716e 96bc cfef 263c e0d7 9fbd ed17 ee3d
00000290: 8963 1ebe 334d 14bd 7136 7fbd 8bb1 7bbc
000002a0: 869f 9fbb 42da 96bd 3bc7 c6bd e955 5fbd
000002b0: cddf b5bc 3e18 e33c 6314 77bd c5ce 58bd
000002c0: 522e 1cbd e6d0 1abc 2f5e f2bd 40a7 d8bc
000002d0: f404 0c3e 65af 9f3d 32d4 dabd 0454 e3ba
000002e0: 4a58 873b 80f2 02be c94e 283d cefe 953c
000002f0: 0f0c 53bc e1ce a53a 5057 22bd 9e33 1dbe
00000300: fba3 6fbd 63e8 53bd 8925 b6bb 0419 21bd
00000310: bae0 8dbb 2f52 69bd 8979 a1bd a764 13be
00000320: 935c 94be 37c9 c33c 43ff ebbd 5de9 99be
00000330: b25a f1be abd0 7ebe 2742 a23b c27b 853b
00000340: 560c 7b3d 832a 483d ff48 95bd 6631 20be
00000350: a95e 683c c7b2 7cbe 0ac6 e1be ea8a 4ebe
00000360: c685 ed3d d50a c0bc 23be d8bd d1b8 13be
00000370: f26f a5be 469f 7ebe c86d 6fbe a72a 4bbe
00000380: a0db 3fbe b0fd e3bd b9a7 80bd f11a d3bd
00000390: 4be4 6abe 126d 12be aa1a b9bd bd82 42be
000003a0: 45bd 49be 5508 30be a111 03be ef0b d0bd
000003b0: f7d6 adbd e037 ab3d f9f3 ec3d 35d3 94bd
000003c0: d255 32be 59b5 14be 3b6e 74bb 425e fe3d
000003d0: d894 9a3d af9d 993d 06f7 fdbc 9032 833c
000003e0: a947 01bd 3f67 023d b5d8 5a3d 9810 e8bc
000003f0: 3953 8ebd 70ca e2bc 9ee2 c6bd 4cfc 973c

gru1.weight_hh_l0 f4 [144, 48]
-0.013742179 0.06887715 0.106252976 -0.12920913 -0.019928044 0.18773589 0.00989486 0.018284636
0.17531693 -0.020450996 -0.07077021 0.17420587 -0.076873295 0.017231496 0.17460027 -0.48889124
-0.13494815 -0.16525358 0.050553475 -0.24617212 0.31564572 -0.026946235 -0.025244765 -0.098678455
-0.08757528 0.038479682 0.047100957 0.0075898683 0.14875054 -0.0026084974 0.03982679 -0.045177467
-0.14086284 -0.054615792 -0.049147192 -0.4306575 -0.0015872464 0.07118492 -0.2328428 0.028338565
-0.19786216 0.2832218 0.20793742 0.014305306 -0.1273355 0.30471346 -0.042536147 -0.09929473
-0.09272117 0.28853106 0.048424758 0.070890255 -0.0054257875 0.07050992 0.088921204 -0.0014395504
-0.06789052 0.39560923 0.2199905 0.6221698 0.21129651 -0.1881616 -0.061906498 -0.037450537
0.072307095 0.06649512 -0.23108824 0.13821228 -0.12915151 -0.040601198 -0.13035318 0.101759605
0.008024551 -0.21015516 0.18729194 0.0029552248 0.017063292 -0.10224047 0.11031622 0.014556064
0.13437323 -0.04475899 0.024507007 0.36869255 0.040237386 -0.2637044 0.34374472 -0.010491041
0.13024837 0.06689543 -0.021076752 -0.1575737 -0.03012592 -0.46950886 0.37701434 0.14639123
0.30004698 2.3594878 1.4857087 0.22453731 0.05645877 -0.105517015 0.5974632 -0.04586863
-1.0503395 0.112382814 0.77886367 0.94719493 0.33638984 -0.31545144 -0.10595115 0.6824288
0.8315546 0.9692905 -0.23390183 -0.3853107 0.17934208 0.51851386 -0.09795053 0.5407314
-0.0001728625 -0.29761943 0.2612965 0.044304937 -0.21543247 -0.06540872 -0.1787369 -0.26118088
0.07146863 -0.52401894 0.26542714 -0.64909065 -0.15348744 -0.05120944 0.5168492 0.11771634
0.106700815 -1.2393595 0.47405317 -0.09988032 1.0595565 -0.24653114 0.16885006 -0.075575575
-0.042025406 0.095820315 -0.06845248 -0.1524865 -0.12661284 -0.10221789 -0.13897824 0.025358975
0.03240677 -0.03993184 -0.12498403 -0.14106143 0.02803206 -0.090207376 -0.17307915 -0.08287298
-0.06905711 0.028436065 0.08372407 0.0831226 -0.046171926 0.010762466 0.052896954 -0.07296497
0.162552 0.15778409 0.057235453 0.16506873 0.023895886 0.040545598 0.07679148 -0.0016468749
-0.30686083 -0.0017914858 0.070691384 0.05154107 0.124371335 0.15224962 -0.052576113 0.031450246
-0.048489254 0.10611823 0.033879835 0.2128912 0.105625756 -0.014344393 -0.1371282 0.08104937
0.031485297 0.108992204 0.42837477 -0.17168768 -0.20868877 0.08005579 -0.065934226 0.11656641
0.052023575 -0.08490411 -0.14524004 0.051128447 0.009830242 -0.11158589 -0.10059018 -0.058309224
0.06279733 0.0050093243 0.13325508 -0.00026383525 0.026285112 0.01655437 0.13136254 -0.009960884
0.19973892 0.2157964 0.10671909 0.24056293 -0.16151002 0.04577467 0.08691987 -0.057148803
-0.14193143 0.11644971 0.17306173 0.05129149 0.16099173 0.07514804 -0.14189425 0.034422383
-0.060755372 0.05958752 0.17706783 0.11829165 -0.17472877 0.03582786 -0.14232634 0.11616985
0.062614046 0.04082568 -0.28871563 -0.16425817 -0.09059802 -0.2008289 -0.19679579 0.052608524
0.0481771 -0.047917705 0.022913462 -0.056874167 0.1939411 -0.036323134 0.023420293 0.061602354
00000000: e026 61bc 770f 8d3d 299b d93d 664f 04be
00000010: 2340 a3bc d63d 403e 0d1e 223c a9c9 953c
00000020: 4886 333e d988 a7bc f9ef 90bd 0663 323e
00000030: bf6f 9dbd 1129 8d3c 6aca 323e f44f fabe
00000040: d92f 0abe 3c38 29be 2911 4f3d 8b14 7cbe
00000050: 519c a13e 5abe dcbc 1cce cebc ee17 cabd
00000060: ab5a b3bd df9c 1d3d efec 403d 6eb4 f83b
00000070: 1052 183e 53f3 2abb 6b21 233d 020c 39bd
00000080: 593e 10be cfb4 5fbd 914e 49bd 247f dcbe
00000090: 270b d0ba 66c9 913d 586e 6ebe 4726 e83c
000000a0: 619c 4abe 7302 913e 8ced 543e cd60 6a3c
000000b0: 3d64 02be 6703 9c3e 623a 2ebd 095b cbbd
000000c0: 99e4 bdbd 58ba 933e 0a59 463d e92e 913d
000000d0: ceca b1bb 8167 903d 521c b63d 4caf bcba
000000e0: 2f0a 8bbd 4b8d ca3e 3145 613e 8546 1f3f
000000f0: 1d5e 583e 6fad 40be ab91 7dbd bc65 19bd
00000100: be15 943d 982e 883d 65a2 6cbe 8587 0d3e
00000110: 4b40 04be 714d 26bd 4e7b 05be 5767 d03d
00000120: 6879 033c ea32 57be 75c9 3f3e 72ac 413b
00000130: 51c8 8b3c 7463 d1bd 78ed e13d 8f7c 6e3c
00000140: 2399 093e 3455 37bd ebc2 c83c 45c5 bc3e
00000150: f5cf 243d 4304 87be 4fff af3e 9de2 2bbc
00000160: d45f 053e 7900 893d 27a9 acbc 005b 21be
00000170: a2ca f6bc 7763 f0be 0608 c13e 95e7 153e
00000180: c29f 993e d901 1740 b42b be3f 1ced 653e
00000190: 5041 673d 4e19 d8bd 59f3 183f bfe0 3bbd
000001a0: 8671 86bf f628 e63d 9c63 473f 5e7b 723f
000001b0: 4a3b ac3e da82 a1be ebfc d8bd a7b3 2e3f
000001c0: c3e0 543f 6c23 783f f683 6fbe 7247 c5be
000001d0: 73a5 373e 53bd 043f 4a9a c8bd 5f6d 0a3f
000001e0: 6d42 35b9 9361 98be a8c8 853e 1879 353d
000001f0: 549a 5cbe 02f5 85bd ce06 37be 80b9 85be
00000200: 255e 923d 1b26 06bf 11e6 873e ce2a 26bf
00000210: d02b 1dbe fdc0 51bd 3b50 043f 4415 f13d
00000220: f585 da3d 55a3 9ebf 19b7 f23e 0e8e ccbd
00000230: 8c9f 873f a972 7cbe 08e7 2c3e 5ec7 9abd
00000240: d522 2cbd 713d c43d d030 8cbd 6c25 1cbe
00000250: cca6 01be 9d57 d1bd 5050 0ebe a0bd cf3c
00000260: f6bc 043d 928f 23bd a1f7 ffbd 6872 10be
00000270: 7ea3 e53c a5be b8bd a93b 31be 4fb9 a9bd
00000280: d06d 8dbd c0f2 e83c 8677 ab3d 2f3c aa3d
00000290: c61e 3dbd 0e55 303c 7aaa 583d a86e 95bd
000002a0: 0874 263e 2792 213e b96f 6a3d c707 293e
000002b0: 4ec1 c33c 2413 263d da44 9d3d f4db d7ba
000002c0: dd1c 9dbe 4ad0 eaba a5c6 903d bb1c 533d
000002d0: 66b6 fe3d 53e7 1b3e 0d5a 57bd f9d1 003d
000002e0: ab9c 46bd 8454 d93d 95c5 0a3d 2700 5a3e
000002f0: 5152 d83d bf04 6bbc 566b 0cbe 36fd a53d
00000300: baf6 003d 4e37 df3d f053 db3e e5ce 2fbe
00000310: 82b2 55be 4af4 a33d 8608 87bd 5fba ee3d
00000320: ac16 553d 35e2 adbd ceb9 14be 106c 513d
00000330: 060f 213c 2587 e4bd 3902 cebd a7d5 6ebd
00000340: e39b 803d 4225 a43b 0574 083e 5e53 8ab9
00000350: e053 d73c 089d 873c e783 063e fa32 23bc
00000360: 5c88 4c3e bbf9 5c3e 8a8f da3d 2156 763e
00000370: e262 25be 387e 3b3d 0b03 b23d dd14 6abd
00000380: 7956 11be 307d ee3d 1837 313e 0717 523d
00000390: 04db 243e 37e7 993d ba4c 11be 7cfe 0c3d
000003a0: a0da 78bd 0b12 743d 4551 353e e542 f23d
000003b0: 19ec 32be 3cc0 123d ffbd 11be 75ea ed3d
000003c0: cb3b 803d d438 273d 89d2 93be 4b33 28be
000003d0: 748b b9bd 17a6 4dbe d684 49be 097c 573d
000003e0: 5a55 453d 5b45 44bd 03b5 bb3c e3f4 68bd
000003f0: 7f98 463e 91c7 14bd eadb bf3c c052 7c3d

gru1.bias_ih_l0 f4 [144]
-0.052764185 -0.0119867455 -0.13848813 0.117597446 0.13337193 0.1525546 -0.028968802 0.01583223
-0.06473449 0.041195404 -0.057086665 -0.0013120114 -0.008823339 -0.056724023 0.13140899 0.15808927
-0.024317615 -0.07969707 0.14869472 0.07337381 -0.15921263 0.005461833 0.0028349864 -0.04829893
0.17100996 0.10365782 0.007283819 0.07140287 -0.039217006 0.16226184 0.053540014 0.14116724
0.14034486 -0.06220213 0.08725588 -0.08097186 0.043506723 -0.012095929 -0.0041805753 -0.035520475
-0.049431264 0.10299113 0.096635684 0.17333321 0.06789666 0.07725736 0.10299162 0.13310584
-0.4911193 0.0931539 -0.3943801 0.050609786 0.016036948 -0.3306256 -0.61868876 -0.11205985
-0.28883246 -0.24116814 0.20603225 -0.1491443 -0.04682578 -0.07293925 0.07966102 -0.17012559
-0.06735569 -0.18364084 -0.3174411 0.049151722 -0.19088735 -0.061774477 -0.33016685 0.103532486
-0.020340951 -0.0062282085 -0.26617122 -0.24284454 0.01402636 -0.23242559 -0.0524419 -0.39013234
-0.26997086 -0.14699592 -0.6527583 -0.2171109 -0.48475784 -0.7569026 -0.0031618434 -0.11237396
-0.090763174 -0.20343341 0.07874184 -0.24593826 -0.29036352 -0.06444239 -0.06318968 0.11785632
-0.013045223 0.07522741 0.055532344 -0.12620574 -0.27356 -0.04094584 -0.12768684 0.108378194
-0.032453638 -0.06201041 -0.09999096 -0.018356714 0.025716152 -0.029475555 -0.06286192 -0.06285336
-0.023757217 0.08701699 0.017807111 0.037025418 -0.06517921 0.07654589 -0.024556387 -0.016268488
0.18567845 0.15589711 0.036338028 0.27066892 -0.07294697 0.13487567 0.016017826 0.03807992
-0.14466411 0.07912199 0.015878364 0.06907993 0.07712185 0.11048544 -0.0589786 0.103646904
0.027805688 0.05940599 0.007724344 0.15710156 0.015981145 0.029339 -0.1005536 0.15868182
00000000: 421f 58bd 0e64 44bc d5cf 0dbe eed6 f03d
00000010: a792 083e 4637 1c3e fb4f edbc 98b2 813c
00000020: 8493 84bd 83bc 283d b5d3 69bd ccf7 abba
00000030: c48f 10bc 7357 68bd 1490 063e 27e2 213e
00000040: bc35 c7bc 3838 a3bd 6e43 183e 0245 963d
00000050: a308 23be 2df9 b23b 2ecb 393b 19d5 45bd
00000060: 3c1d 2f3e 8d4a d43d 1aad ee3b ab3b 923d
00000070: 03a2 20bd f827 263e c64c 5b3d 258e 103e
00000080: 90b6 0f3e a9c7 7ebd 36b3 b23d 93d4 a5bd
00000090: 1b34 323d 012e 46bc 35fd 88bb eb7d 11bd
000000a0: 7078 4abd 03ed d23d eee8 c53d 437e 313e
000000b0: 670d 8b3d 1b39 9e3d 45ed d23d e64c 083e
000000c0: fd73 fbbe 79c7 be3d 30ec c9be 354c 4f3d
000000d0: eb5f 833c c247 a9be 6362 1ebf a27f e5bd
000000e0: d9e1 93be c8f4 76be 1efa 523e 49b9 18be
000000f0: 64cc 3fbd 2c61 95bd 5125 a33d 6735 2ebe
00000100: c8f1 89bd 580c 3cbe a487 a2be 5153 493d
00000110: f977 43be 3c07 7dbd a10b a9be d708 d43d
00000120: 11a2 a6bc 0016 ccbb 9847 88be 3dac 78be
00000130: d1ce 653c f900 6ebe 51cd 56bd 6dbf c7be
00000140: 9f39 8abe 1986 16be 2b1b 27bf 5252 5ebe
00000150: 2e32 f8be 5ec4 41bf ee36 4fbb 5224 e6bd
00000160: 0be2 b9bd d950 50be 6743 a13d 3dd7 7bbe
00000170: 87aa 94be 5ffa 83bd 9769 81bd a85e f13d
00000180: a2bb 55bc d410 9a3d e275 633d 143c 01be
00000190: 0e10 8cbe d3b6 27bd 57c0 02be 63f5 dd3d
000001a0: 1bee 04bd a1fe 7dbd 0fc8 ccbd d260 96bc
000001b0: aeaa d23c b876 f1bc c0bd 80bd 43b9 80bd
000001c0: 7f9e c2bc f735 b23d 38e0 913c f7a7 173d
000001d0: ad7c 85bd 17c4 9c3d 7a2a c9bc 7e45 85bc
000001e0: 7e22 3e3e 7ea3 1f3e 2fd7 143d 1e95 8a3e
000001f0: 3965 95bd d91c 0a3e d137 833c b1f9 1b3d
00000200: d422 14be b60a a23d 5813 823c c779 8d3d
00000210: 0ff2 9d3d 3146 e23d 8b93 71bd d444 d43d
00000220: c1c8 e33c b253 733d 7e1c fd3b 3bdf 203e
00000230: e4ea 823c 5858 f03c 0cef cdbd 7d7d 223e

gru1.bias_hh_l0 f4 [144]
-0.03467907 0.007890152 -0.12117184 0.10588863 0.15602985 0.04428918 -0.031600945 0.036793802
-0.15967916 0.087331414 -0.002926566 0.017664019 -0.0075484333 -0.02544995 0.1323652 0.04381509
-0.033212353 -0.1257686 0.06134107 0.049630813 -0.15597709 0.14019161 -0.071138754 -0.011171503
0.19311887 0.11817519 0.06383869 0.006279644 -0.048229314 0.26776084 0.08288209 0.023479115
0.15878582 0.06873053 -0.031094015 0.027926968 0.059931066 0.011184813 0.100842044 0.040148016
0.027062424 0.13115436 -0.034006286 0.12154246 0.04348518 0.020526445 0.16368482 0.056990884
-0.47382283 0.01849573 -0.4506248 0.04021232 -0.008385947 -0.28284478 -0.5648297 -0.046097603
-0.23993205 -0.2186587 0.09692708 -0.31056198 -0.05072428 -0.13437013 0.03335084 -0.24307546
-0.17038919 -0.20566335 -0.21739571 0.0675025 -0.20443225 -0.06313184 -0.29494599 0.07537296
-0.016430214 0.012708201 -0.19710317 -0.18264349 -0.089901775 -0.23340087 -0.06417594 -0.35253513
-0.21280465 -0.24379395 -0.5817889 -0.27373108 -0.5026383 -0.84251213 -0.058407 -0.089286335
-0.17267804 -0.081983335 0.03637226 -0.32781094 -0.30282113 0.01489168 0.081289716 -0.0005954562
-0.02814456 0.09265418 0.08129461 -0.085154995 -0.352561 -0.046043344 -0.014667566 0.03742402
0.038258832 -0.05340922 -0.06291861 -0.06255949 0.08103649 0.03484486 -0.006012894 0.079057276
-0.004367967 -0.048138585 0.12441672 -0.026503578 0.03232197 -0.029302016 0.036033172 0.003636888
0.25846753 0.11049485 -0.05539704 0.120166756 -0.090094015 0.19167785 0.08508319 0.01460714
-0.18137401 0.13965072 0.066487476 -0.037424833 0.13883528 0.073016495 -0.13756008 0.11242566
-0.062268835 0.07617771 0.08710913 0.10644459 -0.06436868 0.118607715 -0.14122209 0.11535462
00000000: a40b 0ebd b245 013c f128 f8bd 23dc d83d
00000010: 4ac6 1f3e 9268 353d fe6f 01bd 19b5 163d
00000020: ef82 23be d0da b23d a1cb 3fbb 22b4 903c
00000030: d958 f7bb 6a7c d0bc be8a 073e 7477 333d
00000040: ad09 08bd 7cc9 00be c640 7b3d ae49 4b3d
00000050: 75b8 1fbe 648e 0f3e 32b1 91bd ae08 37bc
00000060: f4c0 453e d605 f23d dcbd 823d 79c5 cd3b
00000070: 1a8c 45bd f317 893e 16be a93d 4657 c03c
00000080: c098 223e 98c2 8c3d e0b8 febc 19c7 e43c
00000090: 477a 753d 8240 373c 4686 ce3d 3f72 243d
000000a0: 04b2 dd3c 544d 063e 2d4a 0bbd 41eb f83d
000000b0: 841d 323d 1327 a83c fe9c 273e 466f 693d
000000c0: e898 f2be 5b84 973c 4bb8 e6be acb5 243d
000000d0: 3665 09bc 08d1 90be ae98 10bf d7d0 3cbd
000000e0: bfb0 75be 11e8 5fbe b481 c63d fb01 9fbe
000000f0: 43c4 4fbd 5398 09be e49a 083d c6e8 78be
00000100: 817a 2ebe 6a99 52be fb9c 5ebe c03e 8a3d
00000110: b056 51be 444b 81bd 2903 97be 235d 9a3d
00000120: a898 86bc 0f36 503c 6ad5 49be e506 3bbe
00000130: 6c1e b8bd a300 6fbe ad6e 83bd 7c7f b4be
00000140: 76e9 59be 1fa5 79be 1ef0 14bf 7b26 8cbe
00000150: e7ac 00bf e0ae 57bf 2e3c 6fbd c1db b6bd
00000160: 83d2 30be e1e6 a7bd 14fb 143d d6d6 a7be
00000170: 5f0b 9bbe 3cfc 733c 397b a63d 6418 1cba
00000180: 6c8f e6bc 7ac1 bd3d ca7d a63d be65 aebd
00000190: e082 b4be f297 3cbd 3b50 70bc ee49 193d
000001a0: 4bb5 1c3d a0c3 5abd 79db 80bd 311f 80bd
000001b0: 76f6 a53d 7cb9 0e3d d007 c5bb c8e8 a13d
000001c0: 2a21 8fbb f72c 45bd 31ce fe3d 081e d9bc
000001d0: 0b64 043d c80a f0bc 8597 133d db58 6e3b
000001e0: db55 843e 204b e23d 02e8 62bd fd19 f63d
000001f0: 3683 b8bd 3347 443e 1840 ae3d c952 6f3c
00000200: 1cba 39be 9900 0f3e 962a 883d c84a 19bd
00000210: d62a 0e3e ac89 953d 8ddc 0cbe 6d3f e63d
00000220: 9b0d 7fbd 0f03 9c3d 4666 b23d 9fff d93d
00000230: bad3 83bd 9ae8 f23d 869c 10be 0b3f ec3d

gru2.weight_ih_l0 f4 [48, 48]
0.13548581 -0.009480466 -0.18229434 0.10548353 -0.1129937 -0.0027627707 -0.19156162 -0.046779774
0.18537827 -0.13777061 -0.12356105 -0.12616645 -0.04816616 -0.11924608 0.21067572 -0.05749689
-0.029578064 0.08755234 -0.15845177 0.023657989 0.04514407 -0.10153587 -0.0072657694 -0.13758585
0.10462626 -0.045779742 0.13609186 0.15408386 0.015546415 -0.11284781 0.26795352 0.0015759197
0.097334415 0.07165507 -0.0027407994 0.12661928 -0.019705031 -0.1570643 -0.1376294 -0.011274487
0.11551876 0.012471202 -0.1223329 0.13216327 0.035761733 -0.00032352435 0.13168877 -0.17000112
0.06703097 -0.09102573 -0.17581974 -0.049797237 0.39152837 0.22133836 0.26922825 0.09543733
-0.020642595 -0.11703515 0.11756904 0.03217097 -0.18369631 0.33181623 0.019010914 -0.008964301
0.17005464 0.10450349 -0.019918442 0.09879543 -0.09230251 0.07086875 -0.08270717 0.060190763
-0.16515724 -0.24752392 -0.35583973 -0.10465979 -0.007267366 -0.09878155 -0.11473529 0.22236623
0.016307129 -0.032701656 -0.17565207 0.19133522 -0.400448 0.11691728 0.03004503 -0.08001441
-0.14406507 -0.027934512 0.26199794 -0.2701542 -0.22279848 -0.108437315 0.2955717 -0.022763569
0.07895839 0.0041625975 -0.08356429 -0.018094474 -0.05975646 0.004313009 0.14249808 0.088422716
-0.22726819 -0.14135647 0.0021358319 -0.17083308 0.08636839 -0.20972842 -0.080607556 -0.03232242
0.0804661 0.02830179 0.0027535025 -0.072397225 -0.26052478 0.07924517 -0.0663107 -0.11940346
-0.02263372 -0.03427912 -0.16768609 -0.043172065 -0.20595334 0.04760057 0.1665596 0.011533271
0.104397304 0.02511203 -0.009297754 0.07840917 -0.010549818 1.4994331e-05 0.024246588 0.1676042
0.078841954 -0.11672869 0.1259846 -0.13563718 0.064522974 -0.15828799 0.019223198 -0.030980634
-0.12499549 -0.068779685 -0.07264512 0.15634924 -0.014644154 -0.016471663 -0.0062882854 -0.11027873
0.15609415 0.0503554 -0.024270408 -0.19885795 -0.08453146 0.031412248 -0.07792056 0.030393789
-0.1534839 -0.110171825 -0.04333885 -0.16064657 -0.11459058 0.0904369 0.04820414 -0.10732258
0.032331795 -0.08553921 0.2577591 -0.024884867 0.03659323 -0.2077589 -0.027185256 0.082912
0.055775814 -0.01965223 0.03482363 -0.04967622 -0.05972856 0.118273206 0.005856321 -0.14224696
0.024517447 0.19308707 -0.008690909 -0.1299953 -0.15724075 0.11016049 0.15462217 0.058064517
-0.10406263 0.19981763 -0.17361778 -0.05283704 -0.11142696 -0.048738766 0.04200966 0.07954483
0.1675671 -0.009593232 -0.074378215 0.0010625559 0.003042938 -0.018141344 0.072770916 0.069413945
0.084187105 0.10649155 -0.01746828 -0.022022063 0.086650915 0.042118378 -0.006808649 -0.06548399
-0.106686346 -0.11696049 0.06871537 0.13977161 -0.032291446 0.1013513 0.11748087 -0.07620963
-0.010520054 -0.07730756 -0.099048026 0.07525442 0.04393847 -0.0047134007 -0.07533928 -0.033464305
0.1601887 0.16860639 -0.030040145 -0.19121245 -0.20138119 -0.014333812 -0.14016488 -0.032185182
-0.13510087 0.11205124 -0.64587164 0.353796 0.10821524 0.18107611 -0.03965622 0.11749423
0.36713305 -0.16332741 -0.0030817087 -0.413609 0.14599353 -0.075646676 0.036511302 0.1885666
00000000: cbbc 0a3e f553 1bbc 5eab 3abe c007 d83d
00000010: 3e69 e7bd 9a0f 35bb bb28 44be 269c 3fbd
00000020: cdd3 3d3e bd13 0dbe 930d fdbd c731 01be
00000030: e149 45bd 4a37 f4bd 60bb 573e dc81 6bbd
00000040: b24d f2bc a44e b33d 2e41 22be 66ce c13c
00000050: fde8 383d 0af2 cfbd b115 eebb 4ee3 0cbe
00000060: 4b46 d63d 8a83 3bbd aa5b 0b3e 29c8 1d3e
00000070: 64b6 7e3c c11c e7bd 3431 893e 178f ce3a
00000080: 4457 c73d e5bf 923d fc9e 33bb 7ca8 013e
00000090: 726c a1bc 77d5 20be b9ee 0cbe a0b8 38bc
000000a0: 1a95 ec3d 0354 4c3c ac89 fabd cf55 073e
000000b0: e57a 123d b49e a9b9 6cd9 063e c614 2ebe
000000c0: 8847 893d b36b babd 170a 34be 30f8 4bbd
000000d0: 6876 c83e 86a6 623e 49d8 893e a674 c33d
000000e0: a91a a9bc 20b0 efbd 09c8 f03d b5c5 033d
000000f0: e31a 3cbe d1e3 a93e c7bc 9b3c 01df 12bc
00000100: ce22 2e3e ed05 d63d 002c a3bc 4255 ca3d
00000110: 1909 bdbd a323 913d 6062 a9bd 978a 763d
00000120: fb1e 29be e976 7dbe a030 b6be df57 d6bd
00000130: 1623 eebb fb4d cabd 56fa eabd f9b3 633e
00000140: 8796 853c 2cf2 05bd 23de 33be 61ed 433e
00000150: 8507 cdbe 5472 ef3d ff20 f63c 98de a3bd
00000160: cb85 13be ebd6 e4bc 9824 863e a751 8abe
00000170: 4925 64be 6214 debd 2d55 973e aa7a babc
00000180: f0b4 a13d 6666 883b c123 abbd dd3a 94bc
00000190: 31c3 74bd 2454 8d3b 04eb 113e f816 b53d
000001a0: feb8 68be c0bf 10be 50f9 0b3b deee 2ebe
000001b0: e9e1 b03d 0cc3 56be 9315 a5bd 8464 04bd
000001c0: 69cb a43d 28d9 e73c 1b74 343b ff44 94bd
000001d0: 8163 85be 4b4b a23d e7cd 87bd cd89 f4bd
000001e0: 5a6a b9bc 4368 0cbd e7b5 2bbe 31d5 30bd
000001f0: 6fe5 52be d1f8 423d 9a8e 2a3e 0bf6 3c3c
00000200: 41ce d53d beb7 cd3c 9b55 18bc fd94 a03d
00000210: 25d9 2cbc 2990 7b37 c8a0 c63c 6fa0 2b3e
00000220: e477 a13d 740f efbd 1b02 013e 79e4 0abe
00000230: 9f24 843d 3f16 22be f879 9d3c 19cb fdbc
00000240: a3fd ffbd 5ddc 8cbd f7c6 94bd 041a 203e
00000250: 09ee 6fbc 95ef 86bc f60d cebb d1d9 e1bd
00000260: 25d7 1f3e 7741 4e3d bcd2 c6bc 6ba1 4bbe
00000270: d51e adbd 21aa 003d d194 9fbd 65fc f83c
00000280: e22a 1dbe c4a1 e1bd 1484 31bd 8980 24be
00000290: 77ae eabd fb36 b93d b471 453d f1cb dbbd
000002a0: 586e 043d 2e2f afbd 00f9 833e 59db cbbc
000002b0: c8e2 153d c0be 54be 9db3 debc c4cd a93d
000002c0: 2e75 643d b7fd a0bc 39a3 0e3d 4b79 4bbd
000002d0: efa5 74bd 3939 f23d 62e6 bf3b 30a9 11be
000002e0: d0d8 c83c 9eb8 453e 5064 0ebc 7d1d 05be
000002f0: b803 21be d39b e13d 4655 1e3e 0fd5 6d3d
00000300: ca1e d5bd fe9c 4c3e dcc8 31be a76b 58bd
00000310: d133 e4bd 4da2 47bd 5212 2c3d 66e8 a23d
00000320: b696 2b3e ee2c 1dbc 9b53 98bd 7645 8b3a
00000330: 076c 473b 289d 94bc eb08 953d e628 8e3d
00000340: 4a6a ac3d 3e18 da3d a319 8fbc 9d67 b4bc
00000350: 0976 b13d 5284 2c3d 161b dfbb 781c 86bd
00000360: 5f7e dabd fb88 efbd a5ba 8c3d 4a20 0f3e
00000370: 0944 04bd 4591 cf3d cf99 f03d cb13 9cbd
00000380: 4e5c 2cbc 6d53 9ebd b1d9 cabd fd1e 9a3d
00000390: d3f8 333d df72 9abb 7b4b 9abd de11 09bd
000003a0: 8208 243e 27a7 2c3e c016 f6bc 32cd 43be
000003b0: df36 4ebe 5dd8 6abc 6287 0fbe 9cd4 03bd
000003c0: e257 0abe 1f7b e53d d857 25bf c024 b53e
000003d0: f49f dd3d 046c 393e 8f6e 22bd d1a0 f03d
000003e0: ddf8 bb3e 4d3f 27be 7ef6 49bb 8fc4 d3be
000003f0: 547f 153e a5ec 9abd e08c 153d 9a17 413e

gru2.weight_hh_l0 f4 [48, 16]
0.23171505 0.08241047 0.07803982 0.038077112 0.07525645 -0.006970919 0.009579489 -0.117643364
-0.06960025 -0.080499224 0.2486104 -0.1388595 -0.0683556 -0.01917244 -0.08838903 0.008319645
-0.10309811 -0.14055745 0.02853153 0.24439038 -0.37523678 0.29534277 0.07855492 -0.12567608
0.0870371 0.19115233 0.02260302 -0.038674578 -0.159237 -0.103235886 -0.14468963 -0.051846266
0.13331345 0.022698125 -0.22441708 -0.03136952 0.09044917 -0.044035856 0.12180103 -0.046961557
0.07531144 -0.020896608 -0.029360104 -0.12617265 -0.029104248 -0.12809175 -0.08475591 0.018242354
0.015876304 -0.04117068 0.03122505 0.03402404 -0.087567136 0.098793566 -0.05878791 -0.55152375
0.12273129 0.137531 0.15127784 -0.0039956337 -0.124114215 -0.028761836 0.12065903 -0.01037992
0.030094493 0.1187301 0.013013523 -0.023039747 -0.108042456 0.08404383 0.019517437 -0.23190176
-0.14315176 0.12096535 0.024617884 0.06849502 0.014059105 0.11319104 -0.19569221 -0.013605967
-0.1733031 -0.06972792 -0.10780242 0.35757658 -0.22384995 0.3051619 0.02954804 0.041504636
0.20887652 0.27520424 0.12416564 0.12183073 -0.27979675 -0.08644707 0.17113093 0.054794326
-0.06250669 -0.0365615 0.032032937 -0.19361478 0.07847319 -0.039857477 -0.095308974 0.10096909
0.095595896 -0.16169783 -0.06912696 -0.110243976 0.07639044 0.009401001 -0.1274278 0.054297097
0.019010829 0.055358153 0.14328557 0.13782538 -0.34274918 0.3074537 0.001851113 -0.2737547
0.36300564 -0.0669513 0.24233057 -0.022104746 -0.15117435 0.1888915 0.037667915 -0.04947228
-0.007629831 0.037325434 0.22739834 0.087501764 -0.034943677 0.066727124 0.23218028 0.18990442
-0.011766215 0.16022258 0.62337756 -0.15635274 0.07558899 -0.14884375 0.28537923 0.019662803
0.030780796 0.0023081435 0.0029931758 0.050880916 0.07702433 -0.2003458 0.010976319 0.26484776
0.04196806 0.131356 0.15389004 0.11943571 0.13803484 -0.41673613 -0.098196425 -0.13691387
-0.105263166 0.023638718 -0.16721052 -0.07832349 0.0064942576 0.1533587 -0.11997294 0.09404822
0.33222362 -0.087846585 0.0050520757 -0.17606656 -0.088947326 0.11098121 0.11292592 -0.04109584
0.11851152 0.010800956 -0.0072581493 0.111292735 0.07186344 0.18135485 0.16038162 -0.1989925
0.19624418 0.0003931339 0.085618675 -0.055170745 -0.03675307 -0.09107412 0.025904853 -0.109674826
0.042321384 -0.21052025 0.31079158 0.07929614 0.08810054 -0.18025774 -0.047139887 0.1538337
-0.28938812 0.08409148 -0.113103636 0.060005873 0.041186273 0.07084911 0.33404812 0.16216572
0.059977934 -0.1324324 -0.028659798 0.07519127 -0.12328239 0.19592702 0.2800702 0.08543013
0.019307865 0.064435534 0.34704578 0.001922921 -0.08360211 -0.31460658 -0.08153259 -0.076528184
0.22280836 -0.2013348 0.018626964 0.15056425 0.069841854 0.16536796 -0.07842634 -0.45700654
-0.040769257 -0.07142045 0.43336868 0.023968741 0.11417971 0.0020100535 0.40929142 0.07986172
0.154309 0.05858644 -0.2047621 -0.02533456 0.07586268 0.10872973 0.07963424 0.23748463
-0.020883134 0.046108242 0.02345081 0.063206226 -0.1102438 -0.196314 0.10642766 -0.21227957
00000000: b646 6d3e d2c6 a83d 57d3 9f3d bff6 1b3d
00000010: 0e20 9a3d 4f6c e4bb 4af3 1c3c 01ef f0bd
00000020: 938a 8ebd c7dc a4bd ba93 7e3e 2f31 0ebe
00000030: 05fe 8bbd 850f 9dbc 4f05 b5bd 1f4f 083c
00000040: 1a25 d3bd 4bee 0fbe f5ba e93c 7941 7a3e
00000050: 091f c0be 2b37 973e 67e1 a03d 3bb1 00be
00000060: 8240 b23d 70bd 433e f829 b93c 3c69 1ebd
00000070: 060f 23be 566d d3bd 8529 14be c05c 54bd
00000080: 5283 083e 6bf1 b93c 97cd 65be 537d 00bd
00000090: 6a3d b93d f15e 34bd d272 f93d c35a 40bd
000000a0: e23c 9a3d 5d2f abbc 9a84 f0bc 6733 01be
000000b0: 086c eebc 7c2a 03be 8294 adbd fd70 953c
000000c0: 060f 823c 96a2 28bd adcb ff3c cb5c 0b3d
000000d0: 6656 b3bd 4854 ca3d 97cb 70bd a930 0dbf
000000e0: 8b5a fb3d edd4 0c3e 94e8 1a3e ceed 82bb
000000f0: 982f febd f19d ebbc 151c f73d 8a10 2abc
00000100: ba88 f63c c428 f33d ac36 553c dabd bcbc
00000110: 5d45 ddbd 2c1f ac3d 08e3 9f3c a877 6dbe
00000120: 6096 12be aebc f73d 72ab c93c 1e47 8c3d
00000130: 2958 663c b4d0 e73d 8a63 48be 90eb 5ebc
00000140: 5e76 31be 83cd 8ebd 84c7 dcbd 4714 b73e
00000150: ec38 65be 2e3e 9c3e bb0e f23c c400 2a3d
00000160: bae3 553e 92e7 8c3e 8e4a fe3d 6482 f93d
00000170: 8541 8fbe 290b b1bd f23c 2f3e 0470 603d
00000180: 8203 80bd 83c1 15bd f834 033d f442 46be
00000190: 8db6 a03d 9841 23bd 5a31 c3bd e2c8 ce3d
000001a0: c8c7 c33d 1e94 25be 7092 8dbd 98c7 e1bd
000001b0: 9772 9c3d a806 1a3c 6f7c 02be a266 5e3d
000001c0: 99bc 9b3c 3bbf 623d 74b9 123e 1922 0d3e
000001d0: d27c afbe 926a 9d3e 0ca1 f23a 9329 8cbe
000001e0: e0db b93e c31d 89bd 8125 783e 0315 b5bc
000001f0: 73cd 1abe c66c 413e ac49 1a3d 72a3 4abd
00000200: a903 fabb 8ee2 183d 1cdb 683e 2034 b33d
00000210: 1a21 0fbd 3ba8 883d abc0 6d3e 4e76 423e
00000220: 15c7 40bc 6311 243e ac95 1f3f ef1a 20be
00000230: 66ce 9a3d 7f6a 18be 3a1d 923e e313 a13c
00000240: 0228 fc3c 3944 173b 2829 443b 8268 503d
00000250: efbe 9d3d 7327 4dbe 05d6 333c 209a 873e
00000260: b3e6 2b3d 3082 063e 5a95 1d3e b69a f43d
00000270: 0159 0d3e 705e d5be 351b c9bd 2633 0cbe
00000280: 3794 d7bd fca5 c13c 3c39 2bbe 1168 a0bd
00000290: c8cd d43b 100a 1d3e 5fb4 f5bd 5a9c c03d
000002a0: 3719 aa3e e9e8 b3bd e28b a53b cb4a 34be
000002b0: 042a b6bd 1e4a e33d b445 e73d 1d54 28bd
000002c0: 2bb6 f23d 7ef6 303c c5d5 edbb 72ed e33d
000002d0: 242d 933d 16b5 393e 143b 243e b1c4 4bbe
000002e0: 3cf4 483e 8a1d ce39 d858 af3d b8fa 61bd
000002f0: 638a 16bd 1185 babd 6a36 d43c 329d e0bd
00000300: 3059 2d3d 9f92 57be 1320 9f3e 0466 a23d
00000310: 0e6e b43d 7c95 38be c115 41bd 9586 1d3e
00000320: ae2a 94be 2738 ac3d e1a2 e7bd b8c8 753d
00000330: f0b2 283d 5719 913d 5b08 ab3e c50e 263e
00000340: 6cab 753d 5c9c 07be f4c7 eabc e1fd 993d
00000350: 7a7b fcbd 18a1 483e 5c65 8f3e fef5 ae3d
00000360: 872b 9e3c c7f6 833d fcaf b13e 860a fc3a
00000370: 9537 abbd 1d14 a1be 8ffa a6bd cfba 9cbd
00000380: e027 643e b62a 4ebe 9397 983c 842d 1a3e
00000390: 3f09 8f3d 3856 293e fd9d a0bd c3fc e9be
000003a0: aafd 26bd e344 92bd 80e2 dd3e 185a c43c
000003b0: 0dd7 e93d 1abb 033b a58e d13e 8b8e a33d
000003c0: 2e03 1e3e 56f8 6f3d 28ad 51be 6c8a cfbc
000003d0: e55d 9b3d b1ad de3d 4717 a33d 2c2f 733e
000003e0: 1b13 abbc ffdb 3c3d ea1b c03c 4472 813d
000003f0: 80c7 e1bd 8a06 49be bff6 d93d d15f 59be

gru2.bias_ih_l0 f4 [48]
0.17285815 -0.25896844 -0.10049602 0.009989495 -0.010088528 -0.23605205 -0.0078041633 0.05113908
-0.0030022021 0.07332734 -0.026698131 0.12727939 0.053180497 0.09202294 0.02335424 -0.13581054
-0.33232123 -0.22015943 -0.4083825 -0.39209917 -0.6999175 -0.660483 -0.16551745 -0.8680805
-0.14432366 -0.0611833 -0.5143594 -0.2836201 0.005521176 -0.21314402 -0.16308919 -0.26638305
0.09379239 0.09703572 0.029606495 0.009747192 0.1409987 -0.051378228 -0.17093182 -0.03298346
0.023357194 -0.162219 -0.16748662 -0.043969844 0.16480245 0.02484396 -0.0018471149 0.15274738
00000000: ba01 313e 8397 84be dbd0 cdbd fbaa 233c
00000010: 5a4a 25bc a1b7 71be 11ba ffbb 3677 513d
00000020: 98c0 44bb a52c 963d 0ab6 dabc 8755 023e
00000030: cbd3 593d 8676 bc3d 6451 bf3c eb11 0bbe
00000040: 0226 aabe 7971 61be 8317 d1be 39c1 c8be
00000050: cb2d 33bf 6a15 29bf 687d 29be 863a 5ebf
00000060: 95c9 13be 579b 7abd 0fad 03bf a736 91be
00000070: fbea b43b 6d42 5abe da00 27be 5c63 88be
00000080: 3916 c03d aaba c63d 5289 f23c b0b2 1f3c
00000090: f761 103e fa71 52bd c008 2fbe aa19 07bd
000000a0: 9657 bf3c bd1c 26be 9d81 2bbe b919 34bd
000000b0: f9c1 283e 8f85 cb3c e41a f2ba cf69 1c3e

gru2.bias_hh_l0 f4 [48]
0.1184817 -0.04066583 0.011547452 0.002188054 0.13173193 -0.030561026 0.18711954 0.0684391
0.085369624 0.09597827 -0.14444754 0.13626097 -0.12100223 0.025071947 0.1524939 0.07151645
-0.18286233 -0.16547154 -0.58428174 -0.3964105 -0.75737625 -0.5077109 -0.3432271 -0.9451922
-0.36411643 0.010629568 -0.59179634 -0.2641777 -0.07662553 -0.3015022 0.038029075 -0.1339636
-0.004882699 0.048697434 0.12985568 -0.12910885 -0.0414501 0.10359751 -0.23008189 0.09207043
-0.026246328 -0.14002995 -0.1632018 -0.06712615 0.038722876 -0.035881806 0.076427534 0.112980485
00000000: 89a6 f23d 3791 26bd 8631 3d3c 7465 0f3b
00000010: bce4 063e 1e5b fabc 449c 3f3e cd29 8c3d
00000020: 45d6 ae3d 4190 c43d 0eea 13be ff87 0b3e
00000030: 04d0 f7bd af63 cd3c 5c27 1c3e 3777 923d
00000040: 4340 3bbe 5f71 29be 7d93 15bf 51f6 cabe
00000050: 69e3 41bf 57f9 01bf 76bb afbe 1ef8 71bf
00000060: 786d babe a427 2e3c f77f 17bf 4d42 87be
00000070: d9ed 9cbd 7f5e 9abe 60c4 1b3d c12d 09be
00000080: 0cff 9fbb f676 473d e3f8 043e 1c35 04be
00000090: 94c7 29bd ee2a d43d 969a 6bbe 6c8f bc3d
000000a0: 8a02 d7bc 0364 0fbe 5f1e 27be 6f79 89bd
000000b0: e19b 1e3d cdf8 12bd 0a86 9c3d 5062 e73d

gru3.weight_ih_l0 f4 [24, 16]
0.6412465 0.47619373 -0.16249502 -0.22302544 0.6942279 0.06491357 0.18614143 0.08470247
0.3240806 -0.24303491 0.58513296 0.14496893 0.34296495 0.3622979 0.4163015 -0.045618776
0.037468188 -0.18185852 0.003278753 0.09490241 -0.20750949 -0.13081492 -0.26125562 0.028249921
-0.1726132 0.0898655 -0.08043626 -0.1353241 0.061749354 0.19471082 0.17281188 0.13974763
0.044458818 0.15835375 0.24323392 -0.3662721 0.26395234 -0.005752583 -0.015879685 -0.0652643
-0.29471698 0.18155938 0.12850405 -0.024492174 -0.0026257164 -0.04402338 0.06554053 0.025306046
0.168832 0.22177494 -0.1305059 0.11038834 0.11348123 -0.062918544 0.017390074 -0.17005643
0.34861034 0.08320808 0.1944954 -0.23070915 -0.24132378 0.111665666 -0.024721064 -0.16407382
0.21653628 -0.46233627 -0.092082754 0.42970708 -0.33218944 0.19746454 0.09521335 -0.52609676
0.15175907 0.19962548 0.38514775 -0.07672959 -0.117074944 -0.27572936 -0.36634538 -0.06261732
-0.16644377 -0.32422614 -0.102366716 -0.508954 -0.08364147 -0.31773832 -0.17996831 0.41100478
-0.5162617 0.024513572 -0.68904793 0.15506774 -0.10190328 0.04464138 0.13670805 0.09837984
0.28601196 -0.01806197 0.4048582 0.023200726 -0.013638937 -0.2528123 -0.14053565 -0.04541696
0.2753039 -0.17673804 0.07612229 -0.3154231 0.2537526 0.23121239 0.004629192 0.1675429
0.5630356 -0.011882383 -0.06381784 -0.06211982 -0.047099024 -0.070938505 0.15412144 0.13052896
0.3334007 0.16343631 0.034495756 -0.37259877 -0.022987548 -0.014818076 0.1655228 -0.20958206
-0.23892592 0.026683642 -0.24704418 -0.12075584 -0.23957187 0.013057609 -0.13092344 0.10013667
-0.09979143 -0.20447817 -0.33040246 0.39409894 -0.039132327 0.3873561 -0.8871103 0.3248241
-0.20262836 -0.6654421 -0.5407031 0.33859184 -0.39194947 0.58934426 0.51082146 0.267837
0.22046986 0.88190806 0.18228282 -0.8190677 -0.64377314 -0.5005243 0.294977 -0.3857838
0.38662967 0.6642116 0.15663242 -0.8858878 0.61300236 -0.46130505 -0.28147772 0.11678511
0.32484314 0.121786386 -0.5636914 -0.8539797 -0.030265993 -0.2776103 1.0341536 -0.71769214
-0.18050602 -0.42688236 -0.64120346 0.2513886 -0.6607713 0.8617943 0.57284576 0.2691405
0.56801456 0.9524472 0.119297095 -0.9033224 -0.6520361 -0.4485532 0.18312849 -0.6312731
0.0038617156 0.3159129 -0.9044891 -0.5423701 -0.12201357 -0.038712215 -0.07355734 0.727647
0.3726995 -0.05763057 -0.26533148 0.14100246 -0.09215132 -0.070475735 -0.80306524 -0.4827901
-0.2532692 -0.38376608 -0.19266999 0.026137287 -0.17339925 0.736022 0.6953819 -0.097561866
0.3594699 0.33577707 0.07764241 -0.5400628 -0.45660675 -0.15855871 0.29738215 -0.46023744
0.27222836 -0.34545907 -0.021267455 0.27336422 0.10607791 0.28837854 0.27756226 -0.07405099
-0.27558878 0.32578155 0.1549693 0.2793463 -0.35159266 -0.44618106 0.38929197 -0.23719572
-0.15991603 -0.487386 -0.3330701 0.20833822 -0.1600889 0.8712399 0.5506245 0.52568686
0.48487258 1.0161942 0.43230736 -0.7893963 -0.5722177 -0.41093442 0.2654616 -0.4710342
00000000: bb28 243f aacf f33e 1865 26be c860 64be
00000010: ebb8 313f 68f1 843d dc9b 3e3e 7d78 ad3d
00000020: e4ed a53e 25de 78be 46cb 153f bc72 143e
00000030: 1a99 af3e 1c7f b93e 7825 d53e c1da 3abd
00000040: 3e78 193d 1f39 3abe 59e0 563b 325c c23d
00000050: 5e7d 54be 59f4 05be 4cc3 85be 616c e73c
00000060: 84c1 30be 670b b83d c4bb a4bd 6792 0abe
00000070: e4ec 7c3d 4662 473e 99f5 303e 011a 0f3e
00000080: 731a 363d 7c27 223e 5012 793e 0488 bbbe
00000090: c324 873e 2a80 bcbb 1d16 82bc 4aa9 85bd
000000a0: 25e5 96be b4ea 393e 9196 033e d0a3 c8bc
000000b0: 3614 2cbb dc51 34bd 1d3a 863d a04e cf3c
000000c0: 4ce2 2c3e f818 633e 57a3 05be 4813 e23d
000000d0: d968 e83d 70db 80bd a175 8e3c 4623 2ebe
000000e0: 0e7d b23e ff68 aa3d cd29 473e 053f 6cbe
000000f0: 951d 77be f8b0 e43d d483 cabc f802 28be
00000100: b0bb 5d3e 57b7 ecbe e295 bcbd 9102 dc3e
00000110: bc14 aabe 2534 4a3e 38ff c23d 47ae 06bf
00000120: bb66 1b3e 9f6a 4c3e 1632 c53e 6724 9dbd
00000130: fdc4 efbd 662c 8dbe 9f91 bbbe 823d 80bd
00000140: 3c70 2abe f800 a6be a4a5 d1bd cf4a 02bf
00000150: 384c abbd 99ae a2be 9d49 38be 386f d23e
00000160: ba29 04bf b0d0 c83c 7265 30bf 14ca 1e3e
00000170: abb2 d0bd e1d9 363d 32fd 0b3e 5f7b c93d
00000180: 2970 923e b2f6 93bc 9349 cf3e 730f be3c
00000190: d975 5fbc 9d70 81be 94e8 0fbe 2207 3abd
000001a0: a2f4 8c3e d1fa 34be 01e6 9b3d 237f a1be
000001b0: dceb 813e f1c2 6c3e 7ab0 973b 5e90 2b3e
000001c0: 1a23 103f 54ae 42bc edb2 82bd 5a71 7ebd
000001d0: e8ea 40bd 3548 91bd 03d2 1d3e 62a9 053e
000001e0: 7fb3 aa3e d95b 273e 6c4b 0d3d 44c5 bebe
000001f0: 6250 bcbc 84c7 72bc cf7e 293e ae9c 56be
00000200: ffa8 74be a797 da3c 26f9 7cbe d64e f7bd
00000210: 5452 75be 95ef 553c cb10 06be 7414 cd3d
00000220: 735f ccbd ba62 51be 832a a9be 56c7 c93e
00000230: 3849 20bd 8a53 c63e a919 63bf 584f a63e
00000240: cf7d 4fbe 6a5a 2abf 856b 0abf e95b ad3e
00000250: 9aad c8be 44df 163f 32c5 023f ee21 893e
00000260: dac2 613e bac4 613f 59a8 3a3e 6cae 51bf
00000270: 51ce 24bf 5c22 00bf 3a07 973e 7485 c5be
00000280: 53f4 c53e c509 2a3f 4064 203e 8bc9 62bf
00000290: b9ed 1c3f 2d30 ecbe d91d 90be 082d ef3d
000002a0: d751 a63e 246b f93d 144e 10bf 6a9e 5abf
000002b0: 63f0 f7bc f022 8ebe 255f 843f acba 37bf
000002c0: 92d6 38be 5390 dabe e925 24bf 02b6 803e
000002d0: 4f28 29bf 8d9e 5c3f 05a6 123f c9cc 893e
000002e0: 6769 113f 94d3 733f 0952 f43d 2340 67bf
000002f0: d6eb 26bf c4a8 e5be 0986 3b3e 1d9b 21bf
00000300: d614 7d3b 56bf a13e 998c 67bf c4d8 0abf
00000310: 40e2 f9bd b390 1ebd 3ba5 96bd 1347 3a3f
00000320: 78d2 be3e 080e 6cbd 87d9 87be f362 103e
00000330: d5b9 bcbd 9555 90bd af95 4dbf 4430 f7be
00000340: 80ac 81be fd7c c4be 484b 45be dd1d d63c
00000350: 938f 31be f06b 3c3f 8c04 323f 84ce c7bd
00000360: 700c b83e f9ea ab3e fc02 9f3d 8e41 0abf
00000370: 5cc8 e9be 375d 22be 7942 983e 3ea4 ebbe
00000380: 8461 8b3e 03e0 b0be 1639 aebc 65f6 8b3e
00000390: 603f d93d 5aa6 933e a41c 8e3e 0ca8 97bd
000003a0: f919 8dbe d7cc a63e 46b0 1e3e 7a06 8f3e
000003b0: f403 b4be d871 e4be 4751 c73e 6fe3 72be
000003c0: 07c1 23be a88a f9be 2a88 aabe 9d56 553e
000003d0: 58ee 23be 9409 5f3f baf5 0c3f 6a93 063f
000003e0: 3841 f83e a712 823f 6457 dd3e e015 4abf
000003f0: dc7c 12bf ff65 d2be 95ea 873e 652b f1be

gru3.weight_hh_l0 f4 [24, 8]
-0.25588384 7.618445e-05 -0.039057318 -0.17004095 0.17008346 -0.12792405 0.3472402 -0.33327153
-0.15426151 -0.07641492 -0.0616992 0.06206592 -0.1813952 -0.2001231 -0.04981221 0.0046216287
0.19071075 -0.008819401 -0.22612934 -0.08249602 0.092664704 0.0005023282 -0.17681383 -0.20470726
0.05275515 -0.16454116 0.18827367 0.17836785 0.0025896821 0.14888181 -0.16057011 -0.06752892
0.2150104 -0.2972215 -0.054037485 0.26873693 -0.33838597 -0.17109168 -0.11357831 -0.052554406
-0.1137025 0.26066452 -0.124219514 0.23510887 4.1165207e-05 0.43582824 0.18322526 0.15160891
-0.51814824 0.05383538 -0.34819484 -0.14293814 0.25509253 0.18053049 0.5752881 -0.05010221
-0.155554 -0.46879226 -0.28634265 0.14279822 0.12559748 -0.65161026 0.18679151 0.013733052
-0.010588072 0.41125908 0.17973179 -0.016670149 0.2956631 0.33129185 0.26666084 0.37427258
0.8580465 -0.04519958 0.7602622 -0.3445705 -0.4864998 0.29111665 -1.257637 0.5386994
0.3095767 0.0016477468 -0.19423957 -0.46081415 0.09108723 -0.34555948 -0.13317491 0.6167733
1.1198934 -0.47525904 0.31842586 -0.39231884 -0.48071352 -0.04704357 -1.0780178 0.1974902
0.46228895 0.036743045 -0.30274314 -0.36676094 0.46841243 -0.09682083 -0.2717957 0.5356019
0.60003304 -0.54189414 -0.1418782 -0.14442718 -0.3524087 1.3852396 -0.75533795 0.19683576
0.383888 -0.032327622 0.090873286 -0.10095269 -0.4836337 0.029187122 -0.20021549 -0.10849201
0.9725757 -0.4296912 0.58067626 -0.48200822 -0.3137547 -0.009035628 -1.2308762 0.39655262
0.7816148 -0.2831286 0.2852453 0.19622214 -0.4414693 0.4072888 -0.9451341 0.3877201
-0.22192249 -0.10729931 -0.32662758 -0.025978018 -0.0044142567 0.03349195 0.22343048 0.09182104
0.098421864 0.1149377 -0.16173123 0.021737764 0.17517358 -0.28791663 -0.2218869 -0.04900976
0.004930297 -0.18635054 -0.003712688 -0.01862733 -0.14118063 -0.3324121 -0.072075136 -0.09388897
0.18953085 0.20730777 -0.11280401 -0.096391134 0.39474064 -0.15484938 -0.15525934 0.12152526
0.04461697 -0.19517343 -0.14404519 -0.1398073 -0.23489134 -0.04153046 0.14803462 -0.16040064
-0.6937744 0.15189242 -0.59872437 -0.30860877 0.24690284 0.15030794 0.5975338 0.38407758
-0.016860262 -0.1365986 -0.15781513 -0.2996824 0.08329597 0.023037698 0.13266912 0.12603925
00000000: 3503 83be 37c5 9f38 91fa 1fbd 371f 2ebe
00000010: 5c2a 2e3e 86fe 02be 78c9 b13e 91a2 aabe
00000020: bbf6 1dbe 6d7f 9cbd 4db8 7cbd d638 7e3d
00000030: aabf 39be 12ed 4cbe e307 4cbd 0871 973b
00000040: ae49 433e 407f 10bc 738e 67be acf3 a8bd
00000050: fec6 bd3d adae 033a af0e 35be c89e 51be
00000060: c915 583d 7a7d 28be d0ca 403e 10a6 363e
00000070: a8b7 293b 7974 183e 7e6c 24be 9a4c 8abd
00000080: b02b 5c3e 6b2d 98be 6956 5dbd e397 893e
00000090: ed40 adbe a832 2fbe bf9b e8bd 4a43 57bd
000000a0: dbdc e8bd d275 853e cd66 febd 61c0 703e
000000b0: cea8 2c38 e124 df3e 679f 3b3e 5e3f 1b3e
000000c0: 5da5 04bf 7d82 5c3d 9846 b2be 605e 12be
000000d0: 7d9b 823e fcdc 383e 1546 133f fa37 4dbd
000000e0: 8c49 1fbe 8a05 f0be 819b 92be b239 123e
000000f0: a09c 003e eecf 26bf 4646 3f3e 9800 613c
00000100: 9879 2dbc 8d90 d23e 9c0b 383e d68f 88bc
00000110: 2761 973e 169f a93e c587 883e a8a0 bf3e
00000120: efa8 5b3f 3223 39bd 8ba0 423f 8b6b b0be
00000130: 8016 f9be 3e0d 953e 40fa a0bf 34e8 093f
00000140: d680 9e3e 35f9 d73a bde6 46be d5ef ebbe
00000150: f18b ba3d 2ced b0be 015f 08be dbe4 1d3f
00000160: ab58 8f3f 2755 f3be b708 a33e 04de c8be
00000170: 1520 f6be c2b0 40bd 7dfc 89bf df3a 4a3e
00000180: 23b1 ec3e e07f 163d 2601 9bbe 17c8 bbbe
00000190: c1d3 ef3e 004a c6bd ce28 8bbe 351d 093f
000001a0: c49b 193f 93b9 0abf 8548 11be b8e4 13be
000001b0: ea6e b4be 884f b13f d45d 41bf 508f 493e
000001c0: f88c c43e f869 04bd c61b ba3d 49c0 cebd
000001d0: d69e f7be d519 ef3c 4a05 4dbe 0f31 debd
000001e0: b9fa 783f 7c00 dcbe 33a7 143f c8c9 f6be
000001f0: 75a4 a0be 2c0a 14bc 5a8d 9dbf f208 cb3e
00000200: e817 483f 3bf6 90be ac0b 923e 75ee 483e
00000210: 4408 e2be 2888 d03e 4ff4 71bf 4083 c63e
00000220: a63f 63be bebf dbbd bb3b a7be dacf d4bc
00000230: 78a5 90bb db2e 093d f6ca 643e ab0c bc3d
00000240: 6791 c93d 7564 eb3d df9c 25be 6513 b23c
00000250: b460 333e cf69 93be 5236 63be 75be 48bd
00000260: 548e a13b add2 3ebe 9250 73bb 5898 98bc
00000270: a891 10be eb31 aabe 219c 93bd dc48 c0bd
00000280: 6014 423e 7d48 543e ca05 e7bd b768 c5bd
00000290: 721b ca3e d690 1ebe 4efc 1ebe 3ce2 f83d
000002a0: 49c0 363d 8bdb 47be 9580 13be a529 0fbe
000002b0: 5b87 70be d81b 2abd 6396 173e 1140 24be
000002c0: 339b 31bf b089 1b3e 0046 19bf f801 9ebe
000002d0: 19d4 7c3e 53ea 193e faf7 183f d1a5 c43e
000002e0: 881e 8abc 81e0 0bbe 4a9a 21be f96f 99be
000002f0: 1497 aa3d 8eb9 bc3c 6ada 073e 6f10 013e

gru3.bias_ih_l0 f4 [24]
0.39123744 -0.1678781 -0.02138558 -0.18145908 -0.06475999 -0.115295954 0.47108507 -0.18247275
0.1181931 -0.9353643 -0.26998886 -1.0643733 -0.20135505 -0.8550484 -0.4382756 -1.1913993
-0.5717066 -0.15166783 -0.2171184 0.065317094 0.24326204 0.01772446 0.7772378 0.023496218
00000000: 4650 c83e 3de8 2bbe d030 afbc 69d0 39be
00000010: e3a0 84bd 4920 ecbd 1032 f13e 23da 3abe
00000020: 390f f23d 0974 6fbf fb3b 8abe 623d 88bf
00000030: 0530 4ebe 74e4 5abf a965 e0be c67f 98bf
00000040: 5d5b 12bf d04e 1bbe 4954 5ebe f8c4 853d
00000050: af19 793e e332 913c 0ef9 463f 247b c03c

gru3.bias_hh_l0 f4 [24]
0.28072974 -0.112472296 -0.1893757 -0.19933666 0.18816137 0.0974459 0.3992776 -0.054039128
0.05625395 -0.8651585 -0.16574731 -0.7612163 -0.16653624 -0.91010344 -0.3563554 -1.0145997
-0.76636606 0.14286496 0.07106235 0.0389792 0.021711849 0.21722509 0.8321227 0.010689371
00000000: cfbb 8f3e e057 e6bd b4eb 41be e91e 4cbe
00000010: 60ad 403e b791 c73d 1d6e cc3e 2258 5dbd
00000020: 8b6a 663d 077b 5dbf aab9 29be 12df 42bf
00000030: 7a88 2abe 8afc 68bf 3774 b6be 67de 81bf
00000040: 9130 44bf 314b 123e 2389 913d a7a8 1f3d
00000050: 0cdd b13c 4170 5e3e fe05 553f 7922 2f3c

fc1.weight f4 [16, 8]
-0.15178256 0.23717713 0.51252353 0.46168506 -0.46136165 0.41501898 0.2004373 0.12434529
-0.12252615 -0.096009836 0.6681686 -0.09482396 -0.10617295 0.46813047 0.30473125 0.368409
-0.0057323156 0.30818585 0.58694124 -0.25904927 0.18340379 0.47612575 0.29885858 0.7651306
-0.1854802 -0.07558909 -0.44753677 -0.32953727 0.25292575 -0.47729927 0.24784265 0.32747874
-0.001021789 0.26143903 -0.4896058 0.6328259 0.40966755 1.0972635 0.03759642 -0.14489573
-0.26528615 0.42789477 0.029053606 0.36950353 -0.06897532 0.15075734 0.283745 0.40838492
-0.2204842 0.19576308 -0.15072529 0.34507424 -0.41440412 0.56628156 0.33454913 -0.11250047
0.10820021 -0.10132871 0.03311781 -0.13845375 -0.057505205 0.09915675 0.13582313 -0.05438629
-0.30673486 -0.22172011 -0.5645058 -0.29420137 0.4052198 -0.14311312 0.31891736 0.44734907
-0.20048083 -0.03426891 -0.6163942 0.17851147 -0.38731605 -0.16424456 0.06644466 -0.4782503
-0.21858229 0.2558691 0.31812397 0.59504133 -0.22002672 0.34803748 0.25996238 0.2761033
-0.36590683 -0.35094565 -0.53219336 0.2334354 0.26615125 -0.25160873 0.3861827 -0.2425547
-0.150674 -0.3331325 -0.5499766 0.23776667 -0.24799502 -0.26950926 -0.0035333487 -0.6001016
-0.14984185 0.5725398 0.3241826 -0.3378976 -0.13510238 -0.46128494 0.4009305 -0.36521176
-0.059732985 -0.089293525 -0.07875846 0.022848476 0.017118933 0.03681162 -0.16036123 -0.014736281
-0.31462803 -0.39501238 0.041221578 0.7558682 0.13107777 -0.4430085 0.1656226 -0.43164167
00000000: e36c 1bbe 90de 723e be34 033f fc61 ec3e
00000010: 9837 ecbe 5e7d d43e 703f 4d3e bea8 fe3d
00000020: fdee fabd cea0 c4bd 190d 2b3f 1033 c2bd
00000030: 3471 d9bd ccae ef3e bc05 9c3e 1ba0 bc3e
00000040: 26d6 bbbb 89ca 9d3e c841 163f 1ba2 84be
00000050: 34ce 3b3e c1c6 f33e fe03 993e 99df 433f
00000060: 86ee 3dbe 74ce 9abd 8a23 e5be 1cb9 a8be
00000070: 7c7f 813e 9260 f4be 77ca 7d3e 4bab a73e
00000080: 8ded 85ba 56db 853e 9dad fabe e100 223f
00000090: f2bf d13e 2173 8c3f b4fe 193d 8c5f 14be
000000a0: 96d3 87be 0615 db3e d401 ee3c 912f bd3e
000000b0: ef42 8dbd 2260 1a3e 0647 913e d417 d13e
000000c0: 9cc6 61be 1e76 483e bb57 1abe 92ad b03e
000000d0: c72c d4be d4f7 103f 064a ab3e a566 e6bd
000000e0: 1298 dd3d 6d85 cfbd 8aa6 073d d2c6 0dbe
000000f0: 948a 6bbd b212 cb3d 3815 0b3e 29c4 5ebd
00000100: 5a0c 9dbe 990a 63be 7483 10bf 90a1 96be
00000110: f878 cf3e 3f8c 12be 2349 a33e f00a e53e
00000120: d94a 4dbe 8e5d 0cbd 03cc 1dbf b6cb 363e
00000130: 4a4e c6be ba2f 28be 2314 883d 39dd f4be
00000140: 09d4 5fbe 4601 833e 25e1 a23e a154 183f
00000150: af4e 61be f831 b23e ca19 853e 695d 8d3e
00000160: 2458 bbbe 26af b3be d33d 08bf b109 6f3e
00000170: fa44 883e dcd2 80be bdb9 c53e 4260 78be
00000180: 494a 1abe 5890 aabe 44cb 0cbf 1b79 733e
00000190: 68f2 7dbe 1efd 89be c18f 67bb 42a0 19bf
000001a0: 2470 19be f891 123f 43fb a53e ea00 adbe
000001b0: 4758 0abe 8a2d ecbe c346 cd3e 09fd babe
000001c0: 93aa 74bd 86df b6bd 1e4c a1bd ba2c bb3c
000001d0: 013d 8c3c c8c7 163d bc35 24be 7170 71bc
000001e0: ed16 a1be 103f cabe f5d7 283d 9480 413f
000001f0: 4039 063e 03d2 e2be f998 293e 2300 ddbe

fc1.bias f4 [16]
-0.031708494 0.2539767 0.015329025 0.015648458 0.03057586 0.032731235 0.26075265 -0.15247671
0.23586388 0.056141507 0.3420849 0.34822255 0.019154763 0.09634208 -0.1794857 0.1992861
00000000: c4e0 01bd 3c09 823e 9726 7b3c 3231 803c
00000010: 3a7a fa3c 3011 063d 5f81 853e db22 1cbe
00000020: 4d86 713e a3f4 653d c125 af3e 3a4a b23e
00000030: 73ea 9c3c ff4e c53d 19cb 37be a811 4c3e
